…
I1026 22:09:44.188488  7097 net.cpp:294] The NetState phase (0) differed from the phase (1) specified by a rule in layer conv3_1_1x1_increase/bn
I1026 22:09:44.188495  7097 net.cpp:294] The NetState phase (0) differed from the phase (1) specified by a rule in layer conv3_1_1x1_proj/bn
I1026 22:09:44.188907  7097 net.cpp:51] Initializing net from parameters: 
name: "DSE_TJC_res3_Final"
state {
  phase: TRAIN
  level: 0
  stage: ""
}
layer {
  name: "data"
  type: "HDF5Data"
  top: "data"
  top: "label"
  include {
    phase: TRAIN
  }
  hdf5_data_param {
    source: "/home/jiaby/aa/tjc_data/rse3/data/train_31_x234.txt"
    batch_size: 48
    shuffle: true
  }
}
layer {
  name: "conv1_1/3x3_s2"
  type: "Convolution"
  bottom: "data"
  top: "conv1_1/3x3_s2"
  param {
    lr_mult: 1
    decay_mult: 1
  }
  convolution_param {
    num_output: 64
    bias_term: false
    pad: 1
    kernel_size: 3
    stride: 1
    weight_filler {
      type: "msra"
    }
  }
}
layer {
  name: "conv1_1/3x3_s2/bn"
  type: "BatchNorm"
  bottom: "conv1_1/3x3_s2"
  top: "conv1_1/3x3_s2"
  param {
    lr_mult: 0
    decay_mult: 0
  }
  param {
    lr_mult: 0
    decay_mult: 0
  }
  param {
    lr_mult: 0
    decay_mult: 0
  }
  include {
    phase: TRAIN
  }
  batch_norm_param {
    use_global_stats: false
  }
}
layer {
  name: "conv1_1/3x3_s2/bn/scale"
  type: "Scale"
  bottom: "conv1_1/3x3_s2"
  top: "conv1_1/3x3_s2"
  param {
    lr_mult: 1
    decay_mult: 0
  }
  param {
    lr_mult: 1
    decay_mult: 0
  }
  scale_param {
    bias_term: true
  }
}
layer {
  name: "conv1_1/relu_3x3_s2"
  type: "ReLU"
  bottom: "conv1_1/3x3_s2"
  top: "conv1_1/3x3_s2"
}
layer {
  name: "conv2_1_1x1_reduce"
  type: "Convolution"
  bottom: "conv1_1/3x3_s2"
  top: "conv2_1_1x1_reduce"
  param {
    lr_mult: 1
    decay_mult: 1
  }
  convolution_param {
    num_output: 32
    bias_term: false
    pad: 1
    kernel_size: 3
    stride: 1
    weight_filler {
      type: "msra"
    }
  }
}
layer {
  name: "conv2_1_1x1_reduce/bn"
  type: "BatchNorm"
  bottom: "conv2_1_1x1_reduce"
  top: "conv2_1_1x1_reduce"
  param {
    lr_mult: 0
    decay_mult: 0
  }
  param {
    lr_mult: 0
    decay_mult: 0
  }
  param {
    lr_mult: 0
    decay_mult: 0
  }
  include {
    phase: TRAIN
  }
  batch_norm_param {
    use_global_stats: false
  }
}
layer {
  name: "conv2_1_1x1_reduce/bn/scale"
  type: "Scale"
  bottom: "conv2_1_1x1_reduce"
  top: "conv2_1_1x1_reduce"
  param {
    lr_mult: 1
    decay_mult: 0
  }
  param {
    lr_mult: 1
    decay_mult: 0
  }
  scale_param {
    bias_term: true
  }
}
layer {
  name: "conv2_1_1x1_reduce/relu"
  type: "ReLU"
  bottom: "conv2_1_1x1_reduce"
  top: "conv2_1_1x1_reduce"
}
layer {
  name: "conv2_1_3x3"
  type: "Convolution"
  bottom: "conv2_1_1x1_reduce"
  top: "conv2_1_3x3"
  param {
    lr_mult: 1
    decay_mult: 1
  }
  convolution_param {
    num_output: 32
    bias_term: false
    pad: 1
    kernel_size: 3
    stride: 1
    weight_filler {
      type: "msra"
    }
  }
}
layer {
  name: "conv2_1_3x3/bn"
  type: "BatchNorm"
  bottom: "conv2_1_3x3"
  top: "conv2_1_3x3"
  param {
    lr_mult: 0
    decay_mult: 0
  }
  param {
    lr_mult: 0
    decay_mult: 0
  }
  param {
    lr_mult: 0
    decay_mult: 0
  }
  include {
    phase: TRAIN
  }
  batch_norm_param {
    use_global_stats: false
  }
}
layer {
  name: "conv2_1_3x3/bn/scale"
  type: "Scale"
  bottom: "conv2_1_3x3"
  top: "conv2_1_3x3"
  param {
    lr_mult: 1
    decay_mult: 0
  }
  param {
    lr_mult: 1
    decay_mult: 0
  }
  scale_param {
    bias_term: true
  }
}
layer {
  name: "conv2_1_3x3/relu"
  type: "ReLU"
  bottom: "conv2_1_3x3"
  top: "conv2_1_3x3"
}
layer {
  name: "conv2_1_1x1_increase"
  type: "Convolution"
  bottom: "conv2_1_3x3"
  top: "conv2_1_1x1_increase"
  param {
    lr_mult: 1
    decay_mult: 1
  }
  convolution_param {
    num_output: 32
    bias_term: false
    pad: 1
    kernel_size: 3
    stride: 1
    weight_filler {
      type: "msra"
    }
  }
}
layer {
  name: "conv2_1_1x1_increase/bn"
  type: "BatchNorm"
  bottom: "conv2_1_1x1_increase"
  top: "conv2_1_1x1_increase"
  param {
    lr_mult: 0
    decay_mult: 0
  }
  param {
    lr_mult: 0
    decay_mult: 0
  }
  param {
    lr_mult: 0
    decay_mult: 0
  }
  include {
    phase: TRAIN
  }
  batch_norm_param {
    use_global_stats: false
  }
}
layer {
  name: "conv2_1_1x1_increase/bn/scale"
  type: "Scale"
  bottom: "conv2_1_1x1_increase"
  top: "conv2_1_1x1_increase"
  param {
    lr_mult: 1
    decay_mult: 0
  }
  param {
    lr_mult: 1
    decay_mult: 0
  }
  scale_param {
    bias_term: true
  }
}
layer {
  name: "conv2_1_global_pool"
  type: "Pooling"
  bottom: "conv2_1_1x1_increase"
  top: "conv2_1_global_pool"
  pooling_param {
    pool: AVE
    engine: CAFFE
    global_pooling: true
  }
}
layer {
  name: "conv2_1_1x1_down"
  type: "Convolution"
  bottom: "conv2_1_global_pool"
  top: "conv2_1_1x1_down"
  param {
    lr_mult: 1
    decay_mult: 1
  }
  convolution_param {
    num_output: 32
    kernel_size: 1
    stride: 1
    weight_filler {
      type: "msra"
    }
  }
}
layer {
  name: "conv2_1_1x1_down/relu"
  type: "ReLU"
  bottom: "conv2_1_1x1_down"
  top: "conv2_1_1x1_down"
}
layer {
  name: "conv2_1_1x1_up"
  type: "Convolution"
  bottom: "conv2_1_1x1_down"
  top: "conv2_1_1x1_up"
  param {
    lr_mult: 1
    decay_mult: 1
  }
  convolution_param {
    num_output: 32
    kernel_size: 1
    stride: 1
    weight_filler {
      type: "msra"
    }
  }
}
layer {
  name: "conv2_1_prob"
  type: "Sigmoid"
  bottom: "conv2_1_1x1_up"
  top: "conv2_1_1x1_up"
}
layer {
  name: "conv2_1_1x1_proj"
  type: "Convolution"
  bottom: "conv1_1/3x3_s2"
  top: "conv2_1_1x1_proj"
  param {
    lr_mult: 1
    decay_mult: 1
  }
  convolution_param {
    num_output: 32
    bias_term: false
    kernel_size: 1
    stride: 1
    weight_filler {
      type: "msra"
    }
  }
}
layer {
  name: "conv2_1_1x1_proj/bn"
  type: "BatchNorm"
  bottom: "conv2_1_1x1_proj"
  top: "conv2_1_1x1_proj"
  param {
    lr_mult: 0
    decay_mult: 0
  }
  param {
    lr_mult: 0
    decay_mult: 0
  }
  param {
    lr_mult: 0
    decay_mult: 0
  }
  include {
    phase: TRAIN
  }
  batch_norm_param {
    use_global_stats: false
  }
}
layer {
  name: "conv2_1_1x1_proj/bn/scale"
  type: "Scale"
  bottom: "conv2_1_1x1_proj"
  top: "conv2_1_1x1_proj"
  param {
    lr_mult: 1
    decay_mult: 0
  }
  param {
    lr_mult: 1
    decay_mult: 0
  }
  scale_param {
    bias_term: true
  }
}
layer {
  name: "conv2_1"
  type: "Axpy"
  bottom: "conv2_1_1x1_up"
  bottom: "conv2_1_1x1_increase"
  bottom: "conv2_1_1x1_proj"
  top: "conv2_1"
}
layer {
  name: "conv2_1/relu"
  type: "ReLU"
  bottom: "conv2_1"
  top: "conv2_1"
}
layer {
  name: "res3a_branch1"
  type: "Convolution"
  bottom: "conv2_1"
  top: "res3a_branch1"
  param {
    lr_mult: 1
  }
  convolution_param {
    num_output: 32
    bias_term: false
    pad: 0
    kernel_size: 1
    stride: 1
    weight_filler {
      type: "msra"
    }
  }
}
layer {
  name: "bn3a_branch1"
  type: "BatchNorm"
  bottom: "res3a_branch1"
  top: "res3a_branch1"
  param {
    lr_mult: 0
    decay_mult: 0
  }
  param {
    lr_mult: 0
    decay_mult: 0
  }
  param {
    lr_mult: 0
    decay_mult: 0
  }
  include {
    phase: TRAIN
  }
  batch_norm_param {
    use_global_stats: false
  }
}
layer {
  name: "scale3a_branch1"
  type: "Scale"
  bottom: "res3a_branch1"
  top: "res3a_branch1"
  scale_param {
    bias_term: true
  }
}
layer {
  name: "res3a_branch2a"
  type: "Convolution"
  bottom: "conv2_1"
  top: "res3a_branch2a"
  param {
    lr_mult: 1
  }
  convolution_param {
    num_output: 32
    bias_term: false
    pad: 0
    kernel_size: 1
    stride: 1
    weight_filler {
      type: "msra"
    }
  }
}
layer {
  name: "bn3a_branch2a"
  type: "BatchNorm"
  bottom: "res3a_branch2a"
  top: "res3a_branch2a"
  param {
    lr_mult: 0
    decay_mult: 0
  }
  param {
    lr_mult: 0
    decay_mult: 0
  }
  param {
    lr_mult: 0
    decay_mult: 0
  }
  include {
    phase: TRAIN
  }
  batch_norm_param {
    use_global_stats: false
  }
}
layer {
  name: "scale3a_branch2a"
  type: "Scale"
  bottom: "res3a_branch2a"
  top: "res3a_branch2a"
  scale_param {
    bias_term: true
  }
}
layer {
  name: "res3a_branch2a_relu"
  type: "ReLU"
  bottom: "res3a_branch2a"
  top: "res3a_branch2a"
}
layer {
  name: "res3a_branch2b"
  type: "Convolution"
  bottom: "res3a_branch2a"
  top: "res3a_branch2b"
  param {
    lr_mult: 1
  }
  convolution_param {
    num_output: 32
    bias_term: false
    pad: 1
    kernel_size: 3
    group: 2
    stride: 1
    weight_filler {
      type: "msra"
    }
  }
}
layer {
  name: "bn3a_branch2b"
  type: "BatchNorm"
  bottom: "res3a_branch2b"
  top: "res3a_branch2b"
  param {
    lr_mult: 0
    decay_mult: 0
  }
  param {
    lr_mult: 0
    decay_mult: 0
  }
  param {
    lr_mult: 0
    decay_mult: 0
  }
  include {
    phase: TRAIN
  }
  batch_norm_param {
    use_global_stats: false
  }
}
layer {
  name: "scale3a_branch2b"
  type: "Scale"
  bottom: "res3a_branch2b"
  top: "res3a_branch2b"
  scale_param {
    bias_term: true
  }
}
layer {
  name: "res3a_branch2b_relu"
  type: "ReLU"
  bottom: "res3a_branch2b"
  top: "res3a_branch2b"
}
layer {
  name: "res3a_branch2c"
  type: "Convolution"
  bottom: "res3a_branch2b"
  top: "res3a_branch2c"
  param {
    lr_mult: 1
  }
  convolution_param {
    num_output: 32
    bias_term: false
    pad: 0
    kernel_size: 1
    stride: 1
    weight_filler {
      type: "msra"
    }
  }
}
layer {
  name: "bn3a_branch2c"
  type: "BatchNorm"
  bottom: "res3a_branch2c"
  top: "res3a_branch2c"
  param {
    lr_mult: 0
    decay_mult: 0
  }
  param {
    lr_mult: 0
    decay_mult: 0
  }
  param {
    lr_mult: 0
    decay_mult: 0
  }
  include {
    phase: TRAIN
  }
  batch_norm_param {
    use_global_stats: false
  }
}
layer {
  name: "scale3a_branch2c"
  type: "Scale"
  bottom: "res3a_branch2c"
  top: "res3a_branch2c"
  scale_param {
    bias_term: true
  }
}
layer {
  name: "res3a"
  type: "Eltwise"
  bottom: "res3a_branch1"
  bottom: "res3a_branch2c"
  top: "res3a"
}
layer {
  name: "res3a_relu"
  type: "ReLU"
  bottom: "res3a"
  top: "res3a"
}
layer {
  name: "res4a_branch1"
  type: "Convolution"
  bottom: "res3a"
  top: "res4a_branch1"
  param {
    lr_mult: 1
  }
  convolution_param {
    num_output: 48
    bias_term: false
    pad: 0
    kernel_size: 1
    stride: 1
    weight_filler {
      type: "msra"
    }
  }
}
layer {
  name: "bn4a_branch1"
  type: "BatchNorm"
  bottom: "res4a_branch1"
  top: "res4a_branch1"
  param {
    lr_mult: 0
    decay_mult: 0
  }
  param {
    lr_mult: 0
    decay_mult: 0
  }
  param {
    lr_mult: 0
    decay_mult: 0
  }
  include {
    phase: TRAIN
  }
  batch_norm_param {
    use_global_stats: false
  }
}
layer {
  name: "scale4a_branch1"
  type: "Scale"
  bottom: "res4a_branch1"
  top: "res4a_branch1"
  scale_param {
    bias_term: true
  }
}
layer {
  name: "res4a_branch2a"
  type: "Convolution"
  bottom: "res3a"
  top: "res4a_branch2a"
  param {
    lr_mult: 1
  }
  convolution_param {
    num_output: 48
    bias_term: false
    pad: 0
    kernel_size: 1
    stride: 1
    weight_filler {
      type: "msra"
    }
  }
}
layer {
  name: "bn4a_branch2a"
  type: "BatchNorm"
  bottom: "res4a_branch2a"
  top: "res4a_branch2a"
  param {
    lr_mult: 0
    decay_mult: 0
  }
  param {
    lr_mult: 0
    decay_mult: 0
  }
  param {
    lr_mult: 0
    decay_mult: 0
  }
  include {
    phase: TRAIN
  }
  batch_norm_param {
    use_global_stats: false
  }
}
layer {
  name: "scale4a_branch2a"
  type: "Scale"
  bottom: "res4a_branch2a"
  top: "res4a_branch2a"
  scale_param {
    bias_term: true
  }
}
layer {
  name: "res4a_branch2a_relu"
  type: "ReLU"
  bottom: "res4a_branch2a"
  top: "res4a_branch2a"
}
layer {
  name: "res4a_branch2b"
  type: "Convolution"
  bottom: "res4a_branch2a"
  top: "res4a_branch2b"
  param {
    lr_mult: 1
  }
  convolution_param {
    num_output: 48
    bias_term: false
    pad: 1
    kernel_size: 3
    group: 2
    stride: 1
    weight_filler {
      type: "msra"
    }
  }
}
layer {
  name: "bn4a_branch2b"
  type: "BatchNorm"
  bottom: "res4a_branch2b"
  top: "res4a_branch2b"
  param {
    lr_mult: 0
    decay_mult: 0
  }
  param {
    lr_mult: 0
    decay_mult: 0
  }
  param {
    lr_mult: 0
    decay_mult: 0
  }
  include {
    phase: TRAIN
  }
  batch_norm_param {
    use_global_stats: false
  }
}
layer {
  name: "scale4a_branch2b"
  type: "Scale"
  bottom: "res4a_branch2b"
  top: "res4a_branch2b"
  scale_param {
    bias_term: true
  }
}
layer {
  name: "res4a_branch2b_relu"
  type: "ReLU"
  bottom: "res4a_branch2b"
  top: "res4a_branch2b"
}
layer {
  name: "res4a_branch2c"
  type: "Convolution"
  bottom: "res4a_branch2b"
  top: "res4a_branch2c"
  param {
    lr_mult: 1
  }
  convolution_param {
    num_output: 48
    bias_term: false
    pad: 0
    kernel_size: 1
    stride: 1
    weight_filler {
      type: "msra"
    }
  }
}
layer {
  name: "bn4a_branch2c"
  type: "BatchNorm"
  bottom: "res4a_branch2c"
  top: "res4a_branch2c"
  param {
    lr_mult: 0
    decay_mult: 0
  }
  param {
    lr_mult: 0
    decay_mult: 0
  }
  param {
    lr_mult: 0
    decay_mult: 0
  }
  include {
    phase: TRAIN
  }
  batch_norm_param {
    use_global_stats: false
  }
}
layer {
  name: "scale4a_branch2c"
  type: "Scale"
  bottom: "res4a_branch2c"
  top: "res4a_branch2c"
  scale_param {
    bias_term: true
  }
}
layer {
  name: "res4a"
  type: "Eltwise"
  bottom: "res4a_branch1"
  bottom: "res4a_branch2c"
  top: "res4a"
}
layer {
  name: "res4a_relu"
  type: "ReLU"
  bottom: "res4a"
  top: "res4a"
}
layer {
  name: "res4a_branch1_t"
  type: "Convolution"
  bottom: "res4a"
  top: "res4a_branch1_t"
  param {
    lr_mult: 1
  }
  convolution_param {
    num_output: 64
    bias_term: false
    pad: 0
    kernel_size: 1
    stride: 1
    weight_filler {
      type: "msra"
    }
  }
}
layer {
  name: "bn4a_branch1_t"
  type: "BatchNorm"
  bottom: "res4a_branch1_t"
  top: "res4a_branch1_t"
  param {
    lr_mult: 0
    decay_mult: 0
  }
  param {
    lr_mult: 0
    decay_mult: 0
  }
  param {
    lr_mult: 0
    decay_mult: 0
  }
  include {
    phase: TRAIN
  }
  batch_norm_param {
    use_global_stats: false
  }
}
layer {
  name: "scale4a_branch1_t"
  type: "Scale"
  bottom: "res4a_branch1_t"
  top: "res4a_branch1_t"
  scale_param {
    bias_term: true
  }
}
layer {
  name: "res4a_branch2a_t"
  type: "Convolution"
  bottom: "res4a"
  top: "res4a_branch2a_t"
  param {
    lr_mult: 1
  }
  convolution_param {
    num_output: 64
    bias_term: false
    pad: 0
    kernel_size: 1
    stride: 1
    weight_filler {
      type: "msra"
    }
  }
}
layer {
  name: "bn4a_branch2a_t"
  type: "BatchNorm"
  bottom: "res4a_branch2a_t"
  top: "res4a_branch2a_t"
  param {
    lr_mult: 0
    decay_mult: 0
  }
  param {
    lr_mult: 0
    decay_mult: 0
  }
  param {
    lr_mult: 0
    decay_mult: 0
  }
  include {
    phase: TRAIN
  }
  batch_norm_param {
    use_global_stats: false
  }
}
layer {
  name: "scale4a_branch2a_t"
  type: "Scale"
  bottom: "res4a_branch2a_t"
  top: "res4a_branch2a_t"
  scale_param {
    bias_term: true
  }
}
layer {
  name: "res4a_branch2a_relu_t"
  type: "ReLU"
  bottom: "res4a_branch2a_t"
  top: "res4a_branch2a_t"
}
layer {
  name: "res4a_branch2b_t"
  type: "Convolution"
  bottom: "res4a_branch2a_t"
  top: "res4a_branch2b_t"
  param {
    lr_mult: 1
  }
  convolution_param {
    num_output: 64
    bias_term: false
    pad: 1
    kernel_size: 3
    group: 2
    stride: 1
    weight_filler {
      type: "msra"
    }
  }
}
layer {
  name: "bn4a_branch2b_t"
  type: "BatchNorm"
  bottom: "res4a_branch2b_t"
  top: "res4a_branch2b_t"
  param {
    lr_mult: 0
    decay_mult: 0
  }
  param {
    lr_mult: 0
    decay_mult: 0
  }
  param {
    lr_mult: 0
    decay_mult: 0
  }
  include {
    phase: TRAIN
  }
  batch_norm_param {
    use_global_stats: false
  }
}
layer {
  name: "scale4a_branch2b_t"
  type: "Scale"
  bottom: "res4a_branch2b_t"
  top: "res4a_branch2b_t"
  scale_param {
    bias_term: true
  }
}
layer {
  name: "res4a_branch2b_relu_t"
  type: "ReLU"
  bottom: "res4a_branch2b_t"
  top: "res4a_branch2b_t"
}
layer {
  name: "res4a_branch2c_t"
  type: "Convolution"
  bottom: "res4a_branch2b_t"
  top: "res4a_branch2c_t"
  param {
    lr_mult: 1
  }
  convolution_param {
    num_output: 64
    bias_term: false
    pad: 0
    kernel_size: 1
    stride: 1
    weight_filler {
      type: "msra"
    }
  }
}
layer {
  name: "bn4a_branch2c_t"
  type: "BatchNorm"
  bottom: "res4a_branch2c_t"
  top: "res4a_branch2c_t"
  param {
    lr_mult: 0
    decay_mult: 0
  }
  param {
    lr_mult: 0
    decay_mult: 0
  }
  param {
    lr_mult: 0
    decay_mult: 0
  }
  include {
    phase: TRAIN
  }
  batch_norm_param {
    use_global_stats: false
  }
}
layer {
  name: "scale4a_branch2c_t"
  type: "Scale"
  bottom: "res4a_branch2c_t"
  top: "res4a_branch2c_t"
  scale_param {
    bias_term: true
  }
}
layer {
  name: "res4a_t"
  type: "Eltwise"
  bottom: "res4a_branch1_t"
  bottom: "res4a_branch2c_t"
  top: "res4a_t"
}
layer {
  name: "res4a_relu_t"
  type: "ReLU"
  bottom: "res4a_t"
  top: "res4a_t"
}
layer {
  name: "conv3_1_1x1_reduce"
  type: "Convolution"
  bottom: "res4a_t"
  top: "conv3_1_1x1_reduce"
  param {
    lr_mult: 1
    decay_mult: 1
  }
  convolution_param {
    num_output: 64
    bias_term: false
    pad: 1
    kernel_size: 3
    stride: 1
    weight_filler {
      type: "msra"
    }
  }
}
layer {
  name: "conv3_1_1x1_reduce/bn"
  type: "BatchNorm"
  bottom: "conv3_1_1x1_reduce"
  top: "conv3_1_1x1_reduce"
  param {
    lr_mult: 0
    decay_mult: 0
  }
  param {
    lr_mult: 0
    decay_mult: 0
  }
  param {
    lr_mult: 0
    decay_mult: 0
  }
  include {
    phase: TRAIN
  }
  batch_norm_param {
    use_global_stats: false
  }
}
layer {
  name: "conv3_1_1x1_reduce/bn/scale"
  type: "Scale"
  bottom: "conv3_1_1x1_reduce"
  top: "conv3_1_1x1_reduce"
  param {
    lr_mult: 1
    decay_mult: 0
  }
  param {
    lr_mult: 1
    decay_mult: 0
  }
  scale_param {
    bias_term: true
  }
}
layer {
  name: "conv3_1_1x1_reduce/relu"
  type: "ReLU"
  bottom: "conv3_1_1x1_reduce"
  top: "conv3_1_1x1_reduce"
}
layer {
  name: "conv3_1_3x3"
  type: "Convolution"
  bottom: "conv3_1_1x1_reduce"
  top: "conv3_1_3x3"
  param {
    lr_mult: 1
    decay_mult: 1
  }
  convolution_param {
    num_output: 64
    bias_term: false
    pad: 1
    kernel_size: 3
    stride: 1
    weight_filler {
      type: "msra"
    }
  }
}
layer {
  name: "conv3_1_3x3/bn"
  type: "BatchNorm"
  bottom: "conv3_1_3x3"
  top: "conv3_1_3x3"
  param {
    lr_mult: 0
    decay_mult: 0
  }
  param {
    lr_mult: 0
    decay_mult: 0
  }
  param {
    lr_mult: 0
    decay_mult: 0
  }
  include {
    phase: TRAIN
  }
  batch_norm_param {
    use_global_stats: false
  }
}
layer {
  name: "conv3_1_3x3/bn/scale"
  type: "Scale"
  bottom: "conv3_1_3x3"
  top: "conv3_1_3x3"
  param {
    lr_mult: 1
    decay_mult: 0
  }
  param {
    lr_mult: 1
    decay_mult: 0
  }
  scale_param {
    bias_term: true
  }
}
layer {
  name: "conv3_1_3x3/relu"
  type: "ReLU"
  bottom: "conv3_1_3x3"
  top: "conv3_1_3x3"
}
layer {
  name: "conv3_1_1x1_increase"
  type: "Convolution"
  bottom: "conv3_1_3x3"
  top: "conv3_1_1x1_increase"
  param {
    lr_mult: 1
    decay_mult: 1
  }
  convolution_param {
    num_output: 64
    bias_term: false
    pad: 1
    kernel_size: 3
    stride: 1
    weight_filler {
      type: "msra"
    }
  }
}
layer {
  name: "conv3_1_1x1_increase/bn"
  type: "BatchNorm"
  bottom: "conv3_1_1x1_increase"
  top: "conv3_1_1x1_increase"
  param {
    lr_mult: 0
    decay_mult: 0
  }
  param {
    lr_mult: 0
    decay_mult: 0
  }
  param {
    lr_mult: 0
    decay_mult: 0
  }
  include {
    phase: TRAIN
  }
  batch_norm_param {
    use_global_stats: false
  }
}
layer {
  name: "conv3_1_1x1_increase/bn/scale"
  type: "Scale"
  bottom: "conv3_1_1x1_increase"
  top: "conv3_1_1x1_increase"
  param {
    lr_mult: 1
    decay_mult: 0
  }
  param {
    lr_mult: 1
    decay_mult: 0
  }
  scale_param {
    bias_term: true
  }
}
layer {
  name: "conv3_1_global_pool"
  type: "Pooling"
  bottom: "conv3_1_1x1_increase"
  top: "conv3_1_global_pool"
  pooling_param {
    pool: AVE
    engine: CAFFE
    global_pooling: true
  }
}
layer {
  name: "conv3_1_1x1_down"
  type: "Convolution"
  bottom: "conv3_1_global_pool"
  top: "conv3_1_1x1_down"
  param {
    lr_mult: 1
    decay_mult: 1
  }
  convolution_param {
    num_output: 64
    kernel_size: 1
    stride: 1
    weight_filler {
      type: "msra"
    }
  }
}
layer {
  name: "conv3_1_1x1_down/relu"
  type: "ReLU"
  bottom: "conv3_1_1x1_down"
  top: "conv3_1_1x1_down"
}
layer {
  name: "conv3_1_1x1_up"
  type: "Convolution"
  bottom: "conv3_1_1x1_down"
  top: "conv3_1_1x1_up"
  param {
    lr_mult: 1
    decay_mult: 1
  }
  convolution_param {
    num_output: 64
    kernel_size: 1
    stride: 1
    weight_filler {
      type: "msra"
    }
  }
}
layer {
  name: "conv3_1_prob"
  type: "Sigmoid"
  bottom: "conv3_1_1x1_up"
  top: "conv3_1_1x1_up"
}
layer {
  name: "conv3_1_1x1_proj"
  type: "Convolution"
  bottom: "res4a_t"
  top: "conv3_1_1x1_proj"
  param {
    lr_mult: 1
    decay_mult: 1
  }
  convolution_param {
    num_output: 64
    bias_term: false
    kernel_size: 1
    stride: 1
    weight_filler {
      type: "msra"
    }
  }
}
layer {
  name: "conv3_1_1x1_proj/bn"
  type: "BatchNorm"
  bottom: "conv3_1_1x1_proj"
  top: "conv3_1_1x1_proj"
  param {
    lr_mult: 0
    decay_mult: 0
  }
  param {
    lr_mult: 0
    decay_mult: 0
  }
  param {
    lr_mult: 0
    decay_mult: 0
  }
  include {
    phase: TRAIN
  }
  batch_norm_param {
    use_global_stats: false
  }
}
layer {
  name: "conv3_1_1x1_proj/bn/scale"
  type: "Scale"
  bottom: "conv3_1_1x1_proj"
  top: "conv3_1_1x1_proj"
  param {
    lr_mult: 1
    decay_mult: 0
  }
  param {
    lr_mult: 1
    decay_mult: 0
  }
  scale_param {
    bias_term: true
  }
}
layer {
  name: "conv4_4"
  type: "Axpy"
  bottom: "conv3_1_1x1_up"
  bottom: "conv3_1_1x1_increase"
  bottom: "conv3_1_1x1_proj"
  top: "conv4_4"
}
layer {
  name: "conv4_4/relu"
  type: "ReLU"
  bottom: "conv4_4"
  top: "conv4_4"
}
layer {
  name: "conv4_4_end"
  type: "Convolution"
  bottom: "conv4_4"
  top: "conv4_4_end"
  param {
    lr_mult: 1
    decay_mult: 1
  }
  convolution_param {
    num_output: 1
    bias_term: false
    pad: 1
    kernel_size: 3
    stride: 1
    weight_filler {
      type: "msra"
    }
  }
}
layer {
  name: "HR_recovery"
  type: "Eltwise"
  bottom: "data"
  bottom: "conv4_4_end"
  top: "HR_recovery"
  eltwise_param {
    operation: SUM
  }
}
layer {
  name: "loss"
  type: "EuclideanLoss"
  bottom: "HR_recovery"
  bottom: "label"
  top: "loss"
}
I1026 22:09:44.189574  7097 layer_factory.hpp:77] Creating layer data
I1026 22:09:44.189587  7097 net.cpp:84] Creating Layer data
I1026 22:09:44.189594  7097 net.cpp:380] data -> data
I1026 22:09:44.189616  7097 net.cpp:380] data -> label
I1026 22:09:44.189627  7097 hdf5_data_layer.cpp:80] Loading list of HDF5 filenames from: /home/jiaby/aa/tjc_data/rse3/data/train_31_x234.txt
I1026 22:09:44.189654  7097 hdf5_data_layer.cpp:94] Number of HDF5 files: 1
I1026 22:09:44.209064  7097 hdf5.cpp:32] Datatype class: H5T_FLOAT
I1026 22:11:42.637595  7097 net.cpp:122] Setting up data
I1026 22:11:42.637661  7097 net.cpp:129] Top shape: 48 1 64 64 (196608)
I1026 22:11:42.637665  7097 net.cpp:129] Top shape: 48 1 64 64 (196608)
I1026 22:11:42.637668  7097 net.cpp:137] Memory required for data: 1572864
I1026 22:11:42.637673  7097 layer_factory.hpp:77] Creating layer data_data_0_split
I1026 22:11:42.637682  7097 net.cpp:84] Creating Layer data_data_0_split
I1026 22:11:42.637687  7097 net.cpp:406] data_data_0_split <- data
I1026 22:11:42.637698  7097 net.cpp:380] data_data_0_split -> data_data_0_split_0
I1026 22:11:42.637707  7097 net.cpp:380] data_data_0_split -> data_data_0_split_1
I1026 22:11:42.637735  7097 net.cpp:122] Setting up data_data_0_split
I1026 22:11:42.637739  7097 net.cpp:129] Top shape: 48 1 64 64 (196608)
I1026 22:11:42.637742  7097 net.cpp:129] Top shape: 48 1 64 64 (196608)
I1026 22:11:42.637744  7097 net.cpp:137] Memory required for data: 3145728
I1026 22:11:42.637747  7097 layer_factory.hpp:77] Creating layer conv1_1/3x3_s2
I1026 22:11:42.637982  7097 net.cpp:84] Creating Layer conv1_1/3x3_s2
I1026 22:11:42.637986  7097 net.cpp:406] conv1_1/3x3_s2 <- data_data_0_split_0
I1026 22:11:42.638007  7097 net.cpp:380] conv1_1/3x3_s2 -> conv1_1/3x3_s2
I1026 22:11:43.129154  7097 net.cpp:122] Setting up conv1_1/3x3_s2
I1026 22:11:43.129173  7097 net.cpp:129] Top shape: 48 64 64 64 (12582912)
I1026 22:11:43.129176  7097 net.cpp:137] Memory required for data: 53477376
I1026 22:11:43.129192  7097 layer_factory.hpp:77] Creating layer conv1_1/3x3_s2/bn
I1026 22:11:43.129202  7097 net.cpp:84] Creating Layer conv1_1/3x3_s2/bn
I1026 22:11:43.129206  7097 net.cpp:406] conv1_1/3x3_s2/bn <- conv1_1/3x3_s2
I1026 22:11:43.129211  7097 net.cpp:367] conv1_1/3x3_s2/bn -> conv1_1/3x3_s2 (in-place)
I1026 22:11:43.129878  7097 net.cpp:122] Setting up conv1_1/3x3_s2/bn
I1026 22:11:43.129889  7097 net.cpp:129] Top shape: 48 64 64 64 (12582912)
I1026 22:11:43.129891  7097 net.cpp:137] Memory required for data: 103809024
I1026 22:11:43.129900  7097 layer_factory.hpp:77] Creating layer conv1_1/3x3_s2/bn/scale
I1026 22:11:43.129907  7097 net.cpp:84] Creating Layer conv1_1/3x3_s2/bn/scale
I1026 22:11:43.129910  7097 net.cpp:406] conv1_1/3x3_s2/bn/scale <- conv1_1/3x3_s2
I1026 22:11:43.129914  7097 net.cpp:367] conv1_1/3x3_s2/bn/scale -> conv1_1/3x3_s2 (in-place)
I1026 22:11:43.129950  7097 layer_factory.hpp:77] Creating layer conv1_1/3x3_s2/bn/scale
I1026 22:11:43.130066  7097 net.cpp:122] Setting up conv1_1/3x3_s2/bn/scale
I1026 22:11:43.130071  7097 net.cpp:129] Top shape: 48 64 64 64 (12582912)
I1026 22:11:43.130074  7097 net.cpp:137] Memory required for data: 154140672
I1026 22:11:43.130079  7097 layer_factory.hpp:77] Creating layer conv1_1/relu_3x3_s2
I1026 22:11:43.130084  7097 net.cpp:84] Creating Layer conv1_1/relu_3x3_s2
I1026 22:11:43.130086  7097 net.cpp:406] conv1_1/relu_3x3_s2 <- conv1_1/3x3_s2
I1026 22:11:43.130090  7097 net.cpp:367] conv1_1/relu_3x3_s2 -> conv1_1/3x3_s2 (in-place)
I1026 22:11:43.130333  7097 net.cpp:122] Setting up conv1_1/relu_3x3_s2
I1026 22:11:43.130340  7097 net.cpp:129] Top shape: 48 64 64 64 (12582912)
I1026 22:11:43.130342  7097 net.cpp:137] Memory required for data: 204472320
I1026 22:11:43.130345  7097 layer_factory.hpp:77] Creating layer conv1_1/3x3_s2_conv1_1/relu_3x3_s2_0_split
I1026 22:11:43.130349  7097 net.cpp:84] Creating Layer conv1_1/3x3_s2_conv1_1/relu_3x3_s2_0_split
I1026 22:11:43.130352  7097 net.cpp:406] conv1_1/3x3_s2_conv1_1/relu_3x3_s2_0_split <- conv1_1/3x3_s2
I1026 22:11:43.130355  7097 net.cpp:380] conv1_1/3x3_s2_conv1_1/relu_3x3_s2_0_split -> conv1_1/3x3_s2_conv1_1/relu_3x3_s2_0_split_0
I1026 22:11:43.130362  7097 net.cpp:380] conv1_1/3x3_s2_conv1_1/relu_3x3_s2_0_split -> conv1_1/3x3_s2_conv1_1/relu_3x3_s2_0_split_1
I1026 22:11:43.130388  7097 net.cpp:122] Setting up conv1_1/3x3_s2_conv1_1/relu_3x3_s2_0_split
I1026 22:11:43.130393  7097 net.cpp:129] Top shape: 48 64 64 64 (12582912)
I1026 22:11:43.130395  7097 net.cpp:129] Top shape: 48 64 64 64 (12582912)
I1026 22:11:43.130398  7097 net.cpp:137] Memory required for data: 305135616
I1026 22:11:43.130399  7097 layer_factory.hpp:77] Creating layer conv2_1_1x1_reduce
I1026 22:11:43.130420  7097 net.cpp:84] Creating Layer conv2_1_1x1_reduce
I1026 22:11:43.130424  7097 net.cpp:406] conv2_1_1x1_reduce <- conv1_1/3x3_s2_conv1_1/relu_3x3_s2_0_split_0
I1026 22:11:43.130427  7097 net.cpp:380] conv2_1_1x1_reduce -> conv2_1_1x1_reduce
I1026 22:11:43.132191  7097 net.cpp:122] Setting up conv2_1_1x1_reduce
I1026 22:11:43.132202  7097 net.cpp:129] Top shape: 48 32 64 64 (6291456)
I1026 22:11:43.132205  7097 net.cpp:137] Memory required for data: 330301440
I1026 22:11:43.132210  7097 layer_factory.hpp:77] Creating layer conv2_1_1x1_reduce/bn
I1026 22:11:43.132216  7097 net.cpp:84] Creating Layer conv2_1_1x1_reduce/bn
I1026 22:11:43.132218  7097 net.cpp:406] conv2_1_1x1_reduce/bn <- conv2_1_1x1_reduce
I1026 22:11:43.132223  7097 net.cpp:367] conv2_1_1x1_reduce/bn -> conv2_1_1x1_reduce (in-place)
I1026 22:11:43.132360  7097 net.cpp:122] Setting up conv2_1_1x1_reduce/bn
I1026 22:11:43.132365  7097 net.cpp:129] Top shape: 48 32 64 64 (6291456)
I1026 22:11:43.132369  7097 net.cpp:137] Memory required for data: 355467264
I1026 22:11:43.132375  7097 layer_factory.hpp:77] Creating layer conv2_1_1x1_reduce/bn/scale
I1026 22:11:43.132380  7097 net.cpp:84] Creating Layer conv2_1_1x1_reduce/bn/scale
I1026 22:11:43.132382  7097 net.cpp:406] conv2_1_1x1_reduce/bn/scale <- conv2_1_1x1_reduce
I1026 22:11:43.132386  7097 net.cpp:367] conv2_1_1x1_reduce/bn/scale -> conv2_1_1x1_reduce (in-place)
I1026 22:11:43.132412  7097 layer_factory.hpp:77] Creating layer conv2_1_1x1_reduce/bn/scale
I1026 22:11:43.132491  7097 net.cpp:122] Setting up conv2_1_1x1_reduce/bn/scale
I1026 22:11:43.132496  7097 net.cpp:129] Top shape: 48 32 64 64 (6291456)
I1026 22:11:43.132498  7097 net.cpp:137] Memory required for data: 380633088
I1026 22:11:43.132503  7097 layer_factory.hpp:77] Creating layer conv2_1_1x1_reduce/relu
I1026 22:11:43.132506  7097 net.cpp:84] Creating Layer conv2_1_1x1_reduce/relu
I1026 22:11:43.132508  7097 net.cpp:406] conv2_1_1x1_reduce/relu <- conv2_1_1x1_reduce
I1026 22:11:43.132513  7097 net.cpp:367] conv2_1_1x1_reduce/relu -> conv2_1_1x1_reduce (in-place)
I1026 22:11:43.132710  7097 net.cpp:122] Setting up conv2_1_1x1_reduce/relu
I1026 22:11:43.132717  7097 net.cpp:129] Top shape: 48 32 64 64 (6291456)
I1026 22:11:43.132720  7097 net.cpp:137] Memory required for data: 405798912
I1026 22:11:43.132722  7097 layer_factory.hpp:77] Creating layer conv2_1_3x3
I1026 22:11:43.132728  7097 net.cpp:84] Creating Layer conv2_1_3x3
I1026 22:11:43.132732  7097 net.cpp:406] conv2_1_3x3 <- conv2_1_1x1_reduce
I1026 22:11:43.132736  7097 net.cpp:380] conv2_1_3x3 -> conv2_1_3x3
I1026 22:11:43.134296  7097 net.cpp:122] Setting up conv2_1_3x3
I1026 22:11:43.134305  7097 net.cpp:129] Top shape: 48 32 64 64 (6291456)
I1026 22:11:43.134310  7097 net.cpp:137] Memory required for data: 430964736
I1026 22:11:43.134313  7097 layer_factory.hpp:77] Creating layer conv2_1_3x3/bn
I1026 22:11:43.134318  7097 net.cpp:84] Creating Layer conv2_1_3x3/bn
I1026 22:11:43.134320  7097 net.cpp:406] conv2_1_3x3/bn <- conv2_1_3x3
I1026 22:11:43.134325  7097 net.cpp:367] conv2_1_3x3/bn -> conv2_1_3x3 (in-place)
I1026 22:11:43.134460  7097 net.cpp:122] Setting up conv2_1_3x3/bn
I1026 22:11:43.134465  7097 net.cpp:129] Top shape: 48 32 64 64 (6291456)
I1026 22:11:43.134467  7097 net.cpp:137] Memory required for data: 456130560
I1026 22:11:43.134472  7097 layer_factory.hpp:77] Creating layer conv2_1_3x3/bn/scale
I1026 22:11:43.134476  7097 net.cpp:84] Creating Layer conv2_1_3x3/bn/scale
I1026 22:11:43.134479  7097 net.cpp:406] conv2_1_3x3/bn/scale <- conv2_1_3x3
I1026 22:11:43.134482  7097 net.cpp:367] conv2_1_3x3/bn/scale -> conv2_1_3x3 (in-place)
I1026 22:11:43.134510  7097 layer_factory.hpp:77] Creating layer conv2_1_3x3/bn/scale
I1026 22:11:43.134585  7097 net.cpp:122] Setting up conv2_1_3x3/bn/scale
I1026 22:11:43.134590  7097 net.cpp:129] Top shape: 48 32 64 64 (6291456)
I1026 22:11:43.134593  7097 net.cpp:137] Memory required for data: 481296384
I1026 22:11:43.134598  7097 layer_factory.hpp:77] Creating layer conv2_1_3x3/relu
I1026 22:11:43.134613  7097 net.cpp:84] Creating Layer conv2_1_3x3/relu
I1026 22:11:43.134614  7097 net.cpp:406] conv2_1_3x3/relu <- conv2_1_3x3
I1026 22:11:43.134618  7097 net.cpp:367] conv2_1_3x3/relu -> conv2_1_3x3 (in-place)
I1026 22:11:43.134994  7097 net.cpp:122] Setting up conv2_1_3x3/relu
I1026 22:11:43.135002  7097 net.cpp:129] Top shape: 48 32 64 64 (6291456)
I1026 22:11:43.135005  7097 net.cpp:137] Memory required for data: 506462208
I1026 22:11:43.135007  7097 layer_factory.hpp:77] Creating layer conv2_1_1x1_increase
I1026 22:11:43.135015  7097 net.cpp:84] Creating Layer conv2_1_1x1_increase
I1026 22:11:43.135017  7097 net.cpp:406] conv2_1_1x1_increase <- conv2_1_3x3
I1026 22:11:43.135021  7097 net.cpp:380] conv2_1_1x1_increase -> conv2_1_1x1_increase
I1026 22:11:43.135982  7097 net.cpp:122] Setting up conv2_1_1x1_increase
I1026 22:11:43.135990  7097 net.cpp:129] Top shape: 48 32 64 64 (6291456)
I1026 22:11:43.135993  7097 net.cpp:137] Memory required for data: 531628032
I1026 22:11:43.135998  7097 layer_factory.hpp:77] Creating layer conv2_1_1x1_increase/bn
I1026 22:11:43.136003  7097 net.cpp:84] Creating Layer conv2_1_1x1_increase/bn
I1026 22:11:43.136006  7097 net.cpp:406] conv2_1_1x1_increase/bn <- conv2_1_1x1_increase
I1026 22:11:43.136010  7097 net.cpp:367] conv2_1_1x1_increase/bn -> conv2_1_1x1_increase (in-place)
I1026 22:11:43.136147  7097 net.cpp:122] Setting up conv2_1_1x1_increase/bn
I1026 22:11:43.136152  7097 net.cpp:129] Top shape: 48 32 64 64 (6291456)
I1026 22:11:43.136154  7097 net.cpp:137] Memory required for data: 556793856
I1026 22:11:43.136160  7097 layer_factory.hpp:77] Creating layer conv2_1_1x1_increase/bn/scale
I1026 22:11:43.136164  7097 net.cpp:84] Creating Layer conv2_1_1x1_increase/bn/scale
I1026 22:11:43.136167  7097 net.cpp:406] conv2_1_1x1_increase/bn/scale <- conv2_1_1x1_increase
I1026 22:11:43.136169  7097 net.cpp:367] conv2_1_1x1_increase/bn/scale -> conv2_1_1x1_increase (in-place)
I1026 22:11:43.136198  7097 layer_factory.hpp:77] Creating layer conv2_1_1x1_increase/bn/scale
I1026 22:11:43.136273  7097 net.cpp:122] Setting up conv2_1_1x1_increase/bn/scale
I1026 22:11:43.136278  7097 net.cpp:129] Top shape: 48 32 64 64 (6291456)
I1026 22:11:43.136281  7097 net.cpp:137] Memory required for data: 581959680
I1026 22:11:43.136286  7097 layer_factory.hpp:77] Creating layer conv2_1_1x1_increase_conv2_1_1x1_increase/bn/scale_0_split
I1026 22:11:43.136288  7097 net.cpp:84] Creating Layer conv2_1_1x1_increase_conv2_1_1x1_increase/bn/scale_0_split
I1026 22:11:43.136291  7097 net.cpp:406] conv2_1_1x1_increase_conv2_1_1x1_increase/bn/scale_0_split <- conv2_1_1x1_increase
I1026 22:11:43.136294  7097 net.cpp:380] conv2_1_1x1_increase_conv2_1_1x1_increase/bn/scale_0_split -> conv2_1_1x1_increase_conv2_1_1x1_increase/bn/scale_0_split_0
I1026 22:11:43.136299  7097 net.cpp:380] conv2_1_1x1_increase_conv2_1_1x1_increase/bn/scale_0_split -> conv2_1_1x1_increase_conv2_1_1x1_increase/bn/scale_0_split_1
I1026 22:11:43.136324  7097 net.cpp:122] Setting up conv2_1_1x1_increase_conv2_1_1x1_increase/bn/scale_0_split
I1026 22:11:43.136328  7097 net.cpp:129] Top shape: 48 32 64 64 (6291456)
I1026 22:11:43.136332  7097 net.cpp:129] Top shape: 48 32 64 64 (6291456)
I1026 22:11:43.136334  7097 net.cpp:137] Memory required for data: 632291328
I1026 22:11:43.136337  7097 layer_factory.hpp:77] Creating layer conv2_1_global_pool
I1026 22:11:43.136340  7097 net.cpp:84] Creating Layer conv2_1_global_pool
I1026 22:11:43.136343  7097 net.cpp:406] conv2_1_global_pool <- conv2_1_1x1_increase_conv2_1_1x1_increase/bn/scale_0_split_0
I1026 22:11:43.136348  7097 net.cpp:380] conv2_1_global_pool -> conv2_1_global_pool
I1026 22:11:43.136375  7097 net.cpp:122] Setting up conv2_1_global_pool
I1026 22:11:43.136380  7097 net.cpp:129] Top shape: 48 32 1 1 (1536)
I1026 22:11:43.136384  7097 net.cpp:137] Memory required for data: 632297472
I1026 22:11:43.136385  7097 layer_factory.hpp:77] Creating layer conv2_1_1x1_down
I1026 22:11:43.136391  7097 net.cpp:84] Creating Layer conv2_1_1x1_down
I1026 22:11:43.136394  7097 net.cpp:406] conv2_1_1x1_down <- conv2_1_global_pool
I1026 22:11:43.136406  7097 net.cpp:380] conv2_1_1x1_down -> conv2_1_1x1_down
I1026 22:11:43.137347  7097 net.cpp:122] Setting up conv2_1_1x1_down
I1026 22:11:43.137356  7097 net.cpp:129] Top shape: 48 32 1 1 (1536)
I1026 22:11:43.137358  7097 net.cpp:137] Memory required for data: 632303616
I1026 22:11:43.137363  7097 layer_factory.hpp:77] Creating layer conv2_1_1x1_down/relu
I1026 22:11:43.137369  7097 net.cpp:84] Creating Layer conv2_1_1x1_down/relu
I1026 22:11:43.137372  7097 net.cpp:406] conv2_1_1x1_down/relu <- conv2_1_1x1_down
I1026 22:11:43.137377  7097 net.cpp:367] conv2_1_1x1_down/relu -> conv2_1_1x1_down (in-place)
I1026 22:11:43.137714  7097 net.cpp:122] Setting up conv2_1_1x1_down/relu
I1026 22:11:43.137723  7097 net.cpp:129] Top shape: 48 32 1 1 (1536)
I1026 22:11:43.137727  7097 net.cpp:137] Memory required for data: 632309760
I1026 22:11:43.137729  7097 layer_factory.hpp:77] Creating layer conv2_1_1x1_up
I1026 22:11:43.137735  7097 net.cpp:84] Creating Layer conv2_1_1x1_up
I1026 22:11:43.137739  7097 net.cpp:406] conv2_1_1x1_up <- conv2_1_1x1_down
I1026 22:11:43.137743  7097 net.cpp:380] conv2_1_1x1_up -> conv2_1_1x1_up
I1026 22:11:43.138813  7097 net.cpp:122] Setting up conv2_1_1x1_up
I1026 22:11:43.138823  7097 net.cpp:129] Top shape: 48 32 1 1 (1536)
I1026 22:11:43.138826  7097 net.cpp:137] Memory required for data: 632315904
I1026 22:11:43.138831  7097 layer_factory.hpp:77] Creating layer conv2_1_prob
I1026 22:11:43.138835  7097 net.cpp:84] Creating Layer conv2_1_prob
I1026 22:11:43.138839  7097 net.cpp:406] conv2_1_prob <- conv2_1_1x1_up
I1026 22:11:43.138844  7097 net.cpp:367] conv2_1_prob -> conv2_1_1x1_up (in-place)
I1026 22:11:43.139178  7097 net.cpp:122] Setting up conv2_1_prob
I1026 22:11:43.139187  7097 net.cpp:129] Top shape: 48 32 1 1 (1536)
I1026 22:11:43.139190  7097 net.cpp:137] Memory required for data: 632322048
I1026 22:11:43.139194  7097 layer_factory.hpp:77] Creating layer conv2_1_1x1_proj
I1026 22:11:43.139201  7097 net.cpp:84] Creating Layer conv2_1_1x1_proj
I1026 22:11:43.139204  7097 net.cpp:406] conv2_1_1x1_proj <- conv1_1/3x3_s2_conv1_1/relu_3x3_s2_0_split_1
I1026 22:11:43.139209  7097 net.cpp:380] conv2_1_1x1_proj -> conv2_1_1x1_proj
I1026 22:11:43.140138  7097 net.cpp:122] Setting up conv2_1_1x1_proj
I1026 22:11:43.140147  7097 net.cpp:129] Top shape: 48 32 64 64 (6291456)
I1026 22:11:43.140151  7097 net.cpp:137] Memory required for data: 657487872
I1026 22:11:43.140156  7097 layer_factory.hpp:77] Creating layer conv2_1_1x1_proj/bn
I1026 22:11:43.140161  7097 net.cpp:84] Creating Layer conv2_1_1x1_proj/bn
I1026 22:11:43.140164  7097 net.cpp:406] conv2_1_1x1_proj/bn <- conv2_1_1x1_proj
I1026 22:11:43.140168  7097 net.cpp:367] conv2_1_1x1_proj/bn -> conv2_1_1x1_proj (in-place)
I1026 22:11:43.140311  7097 net.cpp:122] Setting up conv2_1_1x1_proj/bn
I1026 22:11:43.140316  7097 net.cpp:129] Top shape: 48 32 64 64 (6291456)
I1026 22:11:43.140318  7097 net.cpp:137] Memory required for data: 682653696
I1026 22:11:43.140323  7097 layer_factory.hpp:77] Creating layer conv2_1_1x1_proj/bn/scale
I1026 22:11:43.140328  7097 net.cpp:84] Creating Layer conv2_1_1x1_proj/bn/scale
I1026 22:11:43.140331  7097 net.cpp:406] conv2_1_1x1_proj/bn/scale <- conv2_1_1x1_proj
I1026 22:11:43.140336  7097 net.cpp:367] conv2_1_1x1_proj/bn/scale -> conv2_1_1x1_proj (in-place)
I1026 22:11:43.140364  7097 layer_factory.hpp:77] Creating layer conv2_1_1x1_proj/bn/scale
I1026 22:11:43.140444  7097 net.cpp:122] Setting up conv2_1_1x1_proj/bn/scale
I1026 22:11:43.140449  7097 net.cpp:129] Top shape: 48 32 64 64 (6291456)
I1026 22:11:43.140451  7097 net.cpp:137] Memory required for data: 707819520
I1026 22:11:43.140457  7097 layer_factory.hpp:77] Creating layer conv2_1
I1026 22:11:43.140461  7097 net.cpp:84] Creating Layer conv2_1
I1026 22:11:43.140465  7097 net.cpp:406] conv2_1 <- conv2_1_1x1_up
I1026 22:11:43.140468  7097 net.cpp:406] conv2_1 <- conv2_1_1x1_increase_conv2_1_1x1_increase/bn/scale_0_split_1
I1026 22:11:43.140472  7097 net.cpp:406] conv2_1 <- conv2_1_1x1_proj
I1026 22:11:43.140485  7097 net.cpp:380] conv2_1 -> conv2_1
I1026 22:11:43.140522  7097 net.cpp:122] Setting up conv2_1
I1026 22:11:43.140527  7097 net.cpp:129] Top shape: 48 32 64 64 (6291456)
I1026 22:11:43.140528  7097 net.cpp:137] Memory required for data: 732985344
I1026 22:11:43.140530  7097 layer_factory.hpp:77] Creating layer conv2_1/relu
I1026 22:11:43.140534  7097 net.cpp:84] Creating Layer conv2_1/relu
I1026 22:11:43.140537  7097 net.cpp:406] conv2_1/relu <- conv2_1
I1026 22:11:43.140540  7097 net.cpp:367] conv2_1/relu -> conv2_1 (in-place)
I1026 22:11:43.140748  7097 net.cpp:122] Setting up conv2_1/relu
I1026 22:11:43.140755  7097 net.cpp:129] Top shape: 48 32 64 64 (6291456)
I1026 22:11:43.140759  7097 net.cpp:137] Memory required for data: 758151168
I1026 22:11:43.140761  7097 layer_factory.hpp:77] Creating layer conv2_1_conv2_1/relu_0_split
I1026 22:11:43.140765  7097 net.cpp:84] Creating Layer conv2_1_conv2_1/relu_0_split
I1026 22:11:43.140769  7097 net.cpp:406] conv2_1_conv2_1/relu_0_split <- conv2_1
I1026 22:11:43.140772  7097 net.cpp:380] conv2_1_conv2_1/relu_0_split -> conv2_1_conv2_1/relu_0_split_0
I1026 22:11:43.140777  7097 net.cpp:380] conv2_1_conv2_1/relu_0_split -> conv2_1_conv2_1/relu_0_split_1
I1026 22:11:43.140806  7097 net.cpp:122] Setting up conv2_1_conv2_1/relu_0_split
I1026 22:11:43.140811  7097 net.cpp:129] Top shape: 48 32 64 64 (6291456)
I1026 22:11:43.140815  7097 net.cpp:129] Top shape: 48 32 64 64 (6291456)
I1026 22:11:43.140817  7097 net.cpp:137] Memory required for data: 808482816
I1026 22:11:43.140820  7097 layer_factory.hpp:77] Creating layer res3a_branch1
I1026 22:11:43.140826  7097 net.cpp:84] Creating Layer res3a_branch1
I1026 22:11:43.140830  7097 net.cpp:406] res3a_branch1 <- conv2_1_conv2_1/relu_0_split_0
I1026 22:11:43.140833  7097 net.cpp:380] res3a_branch1 -> res3a_branch1
I1026 22:11:43.141878  7097 net.cpp:122] Setting up res3a_branch1
I1026 22:11:43.141888  7097 net.cpp:129] Top shape: 48 32 64 64 (6291456)
I1026 22:11:43.141891  7097 net.cpp:137] Memory required for data: 833648640
I1026 22:11:43.141896  7097 layer_factory.hpp:77] Creating layer bn3a_branch1
I1026 22:11:43.141901  7097 net.cpp:84] Creating Layer bn3a_branch1
I1026 22:11:43.141904  7097 net.cpp:406] bn3a_branch1 <- res3a_branch1
I1026 22:11:43.141908  7097 net.cpp:367] bn3a_branch1 -> res3a_branch1 (in-place)
I1026 22:11:43.142052  7097 net.cpp:122] Setting up bn3a_branch1
I1026 22:11:43.142057  7097 net.cpp:129] Top shape: 48 32 64 64 (6291456)
I1026 22:11:43.142061  7097 net.cpp:137] Memory required for data: 858814464
I1026 22:11:43.142066  7097 layer_factory.hpp:77] Creating layer scale3a_branch1
I1026 22:11:43.142071  7097 net.cpp:84] Creating Layer scale3a_branch1
I1026 22:11:43.142074  7097 net.cpp:406] scale3a_branch1 <- res3a_branch1
I1026 22:11:43.142078  7097 net.cpp:367] scale3a_branch1 -> res3a_branch1 (in-place)
I1026 22:11:43.142107  7097 layer_factory.hpp:77] Creating layer scale3a_branch1
I1026 22:11:43.142185  7097 net.cpp:122] Setting up scale3a_branch1
I1026 22:11:43.142190  7097 net.cpp:129] Top shape: 48 32 64 64 (6291456)
I1026 22:11:43.142194  7097 net.cpp:137] Memory required for data: 883980288
I1026 22:11:43.142199  7097 layer_factory.hpp:77] Creating layer res3a_branch2a
I1026 22:11:43.142204  7097 net.cpp:84] Creating Layer res3a_branch2a
I1026 22:11:43.142207  7097 net.cpp:406] res3a_branch2a <- conv2_1_conv2_1/relu_0_split_1
I1026 22:11:43.142211  7097 net.cpp:380] res3a_branch2a -> res3a_branch2a
I1026 22:11:43.143133  7097 net.cpp:122] Setting up res3a_branch2a
I1026 22:11:43.143142  7097 net.cpp:129] Top shape: 48 32 64 64 (6291456)
I1026 22:11:43.143146  7097 net.cpp:137] Memory required for data: 909146112
I1026 22:11:43.143151  7097 layer_factory.hpp:77] Creating layer bn3a_branch2a
I1026 22:11:43.143155  7097 net.cpp:84] Creating Layer bn3a_branch2a
I1026 22:11:43.143158  7097 net.cpp:406] bn3a_branch2a <- res3a_branch2a
I1026 22:11:43.143162  7097 net.cpp:367] bn3a_branch2a -> res3a_branch2a (in-place)
I1026 22:11:43.143306  7097 net.cpp:122] Setting up bn3a_branch2a
I1026 22:11:43.143317  7097 net.cpp:129] Top shape: 48 32 64 64 (6291456)
I1026 22:11:43.143321  7097 net.cpp:137] Memory required for data: 934311936
I1026 22:11:43.143326  7097 layer_factory.hpp:77] Creating layer scale3a_branch2a
I1026 22:11:43.143332  7097 net.cpp:84] Creating Layer scale3a_branch2a
I1026 22:11:43.143334  7097 net.cpp:406] scale3a_branch2a <- res3a_branch2a
I1026 22:11:43.143337  7097 net.cpp:367] scale3a_branch2a -> res3a_branch2a (in-place)
I1026 22:11:43.143366  7097 layer_factory.hpp:77] Creating layer scale3a_branch2a
I1026 22:11:43.143448  7097 net.cpp:122] Setting up scale3a_branch2a
I1026 22:11:43.143453  7097 net.cpp:129] Top shape: 48 32 64 64 (6291456)
I1026 22:11:43.143455  7097 net.cpp:137] Memory required for data: 959477760
I1026 22:11:43.143460  7097 layer_factory.hpp:77] Creating layer res3a_branch2a_relu
I1026 22:11:43.143463  7097 net.cpp:84] Creating Layer res3a_branch2a_relu
I1026 22:11:43.143466  7097 net.cpp:406] res3a_branch2a_relu <- res3a_branch2a
I1026 22:11:43.143471  7097 net.cpp:367] res3a_branch2a_relu -> res3a_branch2a (in-place)
I1026 22:11:43.143682  7097 net.cpp:122] Setting up res3a_branch2a_relu
I1026 22:11:43.143690  7097 net.cpp:129] Top shape: 48 32 64 64 (6291456)
I1026 22:11:43.143693  7097 net.cpp:137] Memory required for data: 984643584
I1026 22:11:43.143695  7097 layer_factory.hpp:77] Creating layer res3a_branch2b
I1026 22:11:43.143702  7097 net.cpp:84] Creating Layer res3a_branch2b
I1026 22:11:43.143704  7097 net.cpp:406] res3a_branch2b <- res3a_branch2a
I1026 22:11:43.143709  7097 net.cpp:380] res3a_branch2b -> res3a_branch2b
I1026 22:11:43.145578  7097 net.cpp:122] Setting up res3a_branch2b
I1026 22:11:43.145588  7097 net.cpp:129] Top shape: 48 32 64 64 (6291456)
I1026 22:11:43.145591  7097 net.cpp:137] Memory required for data: 1009809408
I1026 22:11:43.145596  7097 layer_factory.hpp:77] Creating layer bn3a_branch2b
I1026 22:11:43.145601  7097 net.cpp:84] Creating Layer bn3a_branch2b
I1026 22:11:43.145602  7097 net.cpp:406] bn3a_branch2b <- res3a_branch2b
I1026 22:11:43.145607  7097 net.cpp:367] bn3a_branch2b -> res3a_branch2b (in-place)
I1026 22:11:43.145752  7097 net.cpp:122] Setting up bn3a_branch2b
I1026 22:11:43.145757  7097 net.cpp:129] Top shape: 48 32 64 64 (6291456)
I1026 22:11:43.145759  7097 net.cpp:137] Memory required for data: 1034975232
I1026 22:11:43.145764  7097 layer_factory.hpp:77] Creating layer scale3a_branch2b
I1026 22:11:43.145768  7097 net.cpp:84] Creating Layer scale3a_branch2b
I1026 22:11:43.145771  7097 net.cpp:406] scale3a_branch2b <- res3a_branch2b
I1026 22:11:43.145774  7097 net.cpp:367] scale3a_branch2b -> res3a_branch2b (in-place)
I1026 22:11:43.145802  7097 layer_factory.hpp:77] Creating layer scale3a_branch2b
I1026 22:11:43.145918  7097 net.cpp:122] Setting up scale3a_branch2b
I1026 22:11:43.145923  7097 net.cpp:129] Top shape: 48 32 64 64 (6291456)
I1026 22:11:43.145925  7097 net.cpp:137] Memory required for data: 1060141056
I1026 22:11:43.145929  7097 layer_factory.hpp:77] Creating layer res3a_branch2b_relu
I1026 22:11:43.145933  7097 net.cpp:84] Creating Layer res3a_branch2b_relu
I1026 22:11:43.145936  7097 net.cpp:406] res3a_branch2b_relu <- res3a_branch2b
I1026 22:11:43.145938  7097 net.cpp:367] res3a_branch2b_relu -> res3a_branch2b (in-place)
I1026 22:11:43.146209  7097 net.cpp:122] Setting up res3a_branch2b_relu
I1026 22:11:43.146216  7097 net.cpp:129] Top shape: 48 32 64 64 (6291456)
I1026 22:11:43.146219  7097 net.cpp:137] Memory required for data: 1085306880
I1026 22:11:43.146221  7097 layer_factory.hpp:77] Creating layer res3a_branch2c
I1026 22:11:43.146229  7097 net.cpp:84] Creating Layer res3a_branch2c
I1026 22:11:43.146232  7097 net.cpp:406] res3a_branch2c <- res3a_branch2b
I1026 22:11:43.146236  7097 net.cpp:380] res3a_branch2c -> res3a_branch2c
I1026 22:11:43.147322  7097 net.cpp:122] Setting up res3a_branch2c
I1026 22:11:43.147331  7097 net.cpp:129] Top shape: 48 32 64 64 (6291456)
I1026 22:11:43.147334  7097 net.cpp:137] Memory required for data: 1110472704
I1026 22:11:43.147337  7097 layer_factory.hpp:77] Creating layer bn3a_branch2c
I1026 22:11:43.147351  7097 net.cpp:84] Creating Layer bn3a_branch2c
I1026 22:11:43.147354  7097 net.cpp:406] bn3a_branch2c <- res3a_branch2c
I1026 22:11:43.147358  7097 net.cpp:367] bn3a_branch2c -> res3a_branch2c (in-place)
I1026 22:11:43.147502  7097 net.cpp:122] Setting up bn3a_branch2c
I1026 22:11:43.147507  7097 net.cpp:129] Top shape: 48 32 64 64 (6291456)
I1026 22:11:43.147511  7097 net.cpp:137] Memory required for data: 1135638528
I1026 22:11:43.147516  7097 layer_factory.hpp:77] Creating layer scale3a_branch2c
I1026 22:11:43.147519  7097 net.cpp:84] Creating Layer scale3a_branch2c
I1026 22:11:43.147522  7097 net.cpp:406] scale3a_branch2c <- res3a_branch2c
I1026 22:11:43.147526  7097 net.cpp:367] scale3a_branch2c -> res3a_branch2c (in-place)
I1026 22:11:43.147554  7097 layer_factory.hpp:77] Creating layer scale3a_branch2c
I1026 22:11:43.147634  7097 net.cpp:122] Setting up scale3a_branch2c
I1026 22:11:43.147640  7097 net.cpp:129] Top shape: 48 32 64 64 (6291456)
I1026 22:11:43.147644  7097 net.cpp:137] Memory required for data: 1160804352
I1026 22:11:43.147646  7097 layer_factory.hpp:77] Creating layer res3a
I1026 22:11:43.147650  7097 net.cpp:84] Creating Layer res3a
I1026 22:11:43.147652  7097 net.cpp:406] res3a <- res3a_branch1
I1026 22:11:43.147655  7097 net.cpp:406] res3a <- res3a_branch2c
I1026 22:11:43.147660  7097 net.cpp:380] res3a -> res3a
I1026 22:11:43.147675  7097 net.cpp:122] Setting up res3a
I1026 22:11:43.147678  7097 net.cpp:129] Top shape: 48 32 64 64 (6291456)
I1026 22:11:43.147682  7097 net.cpp:137] Memory required for data: 1185970176
I1026 22:11:43.147686  7097 layer_factory.hpp:77] Creating layer res3a_relu
I1026 22:11:43.147688  7097 net.cpp:84] Creating Layer res3a_relu
I1026 22:11:43.147691  7097 net.cpp:406] res3a_relu <- res3a
I1026 22:11:43.147694  7097 net.cpp:367] res3a_relu -> res3a (in-place)
I1026 22:11:43.147908  7097 net.cpp:122] Setting up res3a_relu
I1026 22:11:43.147915  7097 net.cpp:129] Top shape: 48 32 64 64 (6291456)
I1026 22:11:43.147917  7097 net.cpp:137] Memory required for data: 1211136000
I1026 22:11:43.147920  7097 layer_factory.hpp:77] Creating layer res3a_res3a_relu_0_split
I1026 22:11:43.147924  7097 net.cpp:84] Creating Layer res3a_res3a_relu_0_split
I1026 22:11:43.147927  7097 net.cpp:406] res3a_res3a_relu_0_split <- res3a
I1026 22:11:43.147930  7097 net.cpp:380] res3a_res3a_relu_0_split -> res3a_res3a_relu_0_split_0
I1026 22:11:43.147935  7097 net.cpp:380] res3a_res3a_relu_0_split -> res3a_res3a_relu_0_split_1
I1026 22:11:43.147964  7097 net.cpp:122] Setting up res3a_res3a_relu_0_split
I1026 22:11:43.147969  7097 net.cpp:129] Top shape: 48 32 64 64 (6291456)
I1026 22:11:43.147971  7097 net.cpp:129] Top shape: 48 32 64 64 (6291456)
I1026 22:11:43.147974  7097 net.cpp:137] Memory required for data: 1261467648
I1026 22:11:43.147975  7097 layer_factory.hpp:77] Creating layer res4a_branch1
I1026 22:11:43.147981  7097 net.cpp:84] Creating Layer res4a_branch1
I1026 22:11:43.147984  7097 net.cpp:406] res4a_branch1 <- res3a_res3a_relu_0_split_0
I1026 22:11:43.147987  7097 net.cpp:380] res4a_branch1 -> res4a_branch1
I1026 22:11:43.148929  7097 net.cpp:122] Setting up res4a_branch1
I1026 22:11:43.148938  7097 net.cpp:129] Top shape: 48 48 64 64 (9437184)
I1026 22:11:43.148941  7097 net.cpp:137] Memory required for data: 1299216384
I1026 22:11:43.148947  7097 layer_factory.hpp:77] Creating layer bn4a_branch1
I1026 22:11:43.148952  7097 net.cpp:84] Creating Layer bn4a_branch1
I1026 22:11:43.148954  7097 net.cpp:406] bn4a_branch1 <- res4a_branch1
I1026 22:11:43.148958  7097 net.cpp:367] bn4a_branch1 -> res4a_branch1 (in-place)
I1026 22:11:43.149104  7097 net.cpp:122] Setting up bn4a_branch1
I1026 22:11:43.149109  7097 net.cpp:129] Top shape: 48 48 64 64 (9437184)
I1026 22:11:43.149111  7097 net.cpp:137] Memory required for data: 1336965120
I1026 22:11:43.149116  7097 layer_factory.hpp:77] Creating layer scale4a_branch1
I1026 22:11:43.149121  7097 net.cpp:84] Creating Layer scale4a_branch1
I1026 22:11:43.149123  7097 net.cpp:406] scale4a_branch1 <- res4a_branch1
I1026 22:11:43.149134  7097 net.cpp:367] scale4a_branch1 -> res4a_branch1 (in-place)
I1026 22:11:43.149164  7097 layer_factory.hpp:77] Creating layer scale4a_branch1
I1026 22:11:43.149245  7097 net.cpp:122] Setting up scale4a_branch1
I1026 22:11:43.149250  7097 net.cpp:129] Top shape: 48 48 64 64 (9437184)
I1026 22:11:43.149251  7097 net.cpp:137] Memory required for data: 1374713856
I1026 22:11:43.149255  7097 layer_factory.hpp:77] Creating layer res4a_branch2a
I1026 22:11:43.149261  7097 net.cpp:84] Creating Layer res4a_branch2a
I1026 22:11:43.149264  7097 net.cpp:406] res4a_branch2a <- res3a_res3a_relu_0_split_1
I1026 22:11:43.149268  7097 net.cpp:380] res4a_branch2a -> res4a_branch2a
I1026 22:11:43.150326  7097 net.cpp:122] Setting up res4a_branch2a
I1026 22:11:43.150336  7097 net.cpp:129] Top shape: 48 48 64 64 (9437184)
I1026 22:11:43.150339  7097 net.cpp:137] Memory required for data: 1412462592
I1026 22:11:43.150346  7097 layer_factory.hpp:77] Creating layer bn4a_branch2a
I1026 22:11:43.150352  7097 net.cpp:84] Creating Layer bn4a_branch2a
I1026 22:11:43.150355  7097 net.cpp:406] bn4a_branch2a <- res4a_branch2a
I1026 22:11:43.150359  7097 net.cpp:367] bn4a_branch2a -> res4a_branch2a (in-place)
I1026 22:11:43.150504  7097 net.cpp:122] Setting up bn4a_branch2a
I1026 22:11:43.150509  7097 net.cpp:129] Top shape: 48 48 64 64 (9437184)
I1026 22:11:43.150511  7097 net.cpp:137] Memory required for data: 1450211328
I1026 22:11:43.150516  7097 layer_factory.hpp:77] Creating layer scale4a_branch2a
I1026 22:11:43.150521  7097 net.cpp:84] Creating Layer scale4a_branch2a
I1026 22:11:43.150522  7097 net.cpp:406] scale4a_branch2a <- res4a_branch2a
I1026 22:11:43.150527  7097 net.cpp:367] scale4a_branch2a -> res4a_branch2a (in-place)
I1026 22:11:43.150554  7097 layer_factory.hpp:77] Creating layer scale4a_branch2a
I1026 22:11:43.150633  7097 net.cpp:122] Setting up scale4a_branch2a
I1026 22:11:43.150638  7097 net.cpp:129] Top shape: 48 48 64 64 (9437184)
I1026 22:11:43.150641  7097 net.cpp:137] Memory required for data: 1487960064
I1026 22:11:43.150645  7097 layer_factory.hpp:77] Creating layer res4a_branch2a_relu
I1026 22:11:43.150648  7097 net.cpp:84] Creating Layer res4a_branch2a_relu
I1026 22:11:43.150650  7097 net.cpp:406] res4a_branch2a_relu <- res4a_branch2a
I1026 22:11:43.150655  7097 net.cpp:367] res4a_branch2a_relu -> res4a_branch2a (in-place)
I1026 22:11:43.150861  7097 net.cpp:122] Setting up res4a_branch2a_relu
I1026 22:11:43.150867  7097 net.cpp:129] Top shape: 48 48 64 64 (9437184)
I1026 22:11:43.150871  7097 net.cpp:137] Memory required for data: 1525708800
I1026 22:11:43.150872  7097 layer_factory.hpp:77] Creating layer res4a_branch2b
I1026 22:11:43.150878  7097 net.cpp:84] Creating Layer res4a_branch2b
I1026 22:11:43.150882  7097 net.cpp:406] res4a_branch2b <- res4a_branch2a
I1026 22:11:43.150885  7097 net.cpp:380] res4a_branch2b -> res4a_branch2b
I1026 22:11:43.152740  7097 net.cpp:122] Setting up res4a_branch2b
I1026 22:11:43.152750  7097 net.cpp:129] Top shape: 48 48 64 64 (9437184)
I1026 22:11:43.152752  7097 net.cpp:137] Memory required for data: 1563457536
I1026 22:11:43.152756  7097 layer_factory.hpp:77] Creating layer bn4a_branch2b
I1026 22:11:43.152761  7097 net.cpp:84] Creating Layer bn4a_branch2b
I1026 22:11:43.152765  7097 net.cpp:406] bn4a_branch2b <- res4a_branch2b
I1026 22:11:43.152768  7097 net.cpp:367] bn4a_branch2b -> res4a_branch2b (in-place)
I1026 22:11:43.152916  7097 net.cpp:122] Setting up bn4a_branch2b
I1026 22:11:43.152922  7097 net.cpp:129] Top shape: 48 48 64 64 (9437184)
I1026 22:11:43.152925  7097 net.cpp:137] Memory required for data: 1601206272
I1026 22:11:43.152930  7097 layer_factory.hpp:77] Creating layer scale4a_branch2b
I1026 22:11:43.152933  7097 net.cpp:84] Creating Layer scale4a_branch2b
I1026 22:11:43.152936  7097 net.cpp:406] scale4a_branch2b <- res4a_branch2b
I1026 22:11:43.152940  7097 net.cpp:367] scale4a_branch2b -> res4a_branch2b (in-place)
I1026 22:11:43.152967  7097 layer_factory.hpp:77] Creating layer scale4a_branch2b
I1026 22:11:43.153057  7097 net.cpp:122] Setting up scale4a_branch2b
I1026 22:11:43.153064  7097 net.cpp:129] Top shape: 48 48 64 64 (9437184)
I1026 22:11:43.153065  7097 net.cpp:137] Memory required for data: 1638955008
I1026 22:11:43.153069  7097 layer_factory.hpp:77] Creating layer res4a_branch2b_relu
I1026 22:11:43.153072  7097 net.cpp:84] Creating Layer res4a_branch2b_relu
I1026 22:11:43.153075  7097 net.cpp:406] res4a_branch2b_relu <- res4a_branch2b
I1026 22:11:43.153079  7097 net.cpp:367] res4a_branch2b_relu -> res4a_branch2b (in-place)
I1026 22:11:43.153288  7097 net.cpp:122] Setting up res4a_branch2b_relu
I1026 22:11:43.153296  7097 net.cpp:129] Top shape: 48 48 64 64 (9437184)
I1026 22:11:43.153300  7097 net.cpp:137] Memory required for data: 1676703744
I1026 22:11:43.153301  7097 layer_factory.hpp:77] Creating layer res4a_branch2c
I1026 22:11:43.153307  7097 net.cpp:84] Creating Layer res4a_branch2c
I1026 22:11:43.153309  7097 net.cpp:406] res4a_branch2c <- res4a_branch2b
I1026 22:11:43.153314  7097 net.cpp:380] res4a_branch2c -> res4a_branch2c
I1026 22:11:43.154291  7097 net.cpp:122] Setting up res4a_branch2c
I1026 22:11:43.154301  7097 net.cpp:129] Top shape: 48 48 64 64 (9437184)
I1026 22:11:43.154304  7097 net.cpp:137] Memory required for data: 1714452480
I1026 22:11:43.154309  7097 layer_factory.hpp:77] Creating layer bn4a_branch2c
I1026 22:11:43.154314  7097 net.cpp:84] Creating Layer bn4a_branch2c
I1026 22:11:43.154316  7097 net.cpp:406] bn4a_branch2c <- res4a_branch2c
I1026 22:11:43.154320  7097 net.cpp:367] bn4a_branch2c -> res4a_branch2c (in-place)
I1026 22:11:43.154469  7097 net.cpp:122] Setting up bn4a_branch2c
I1026 22:11:43.154474  7097 net.cpp:129] Top shape: 48 48 64 64 (9437184)
I1026 22:11:43.154476  7097 net.cpp:137] Memory required for data: 1752201216
I1026 22:11:43.154482  7097 layer_factory.hpp:77] Creating layer scale4a_branch2c
I1026 22:11:43.154486  7097 net.cpp:84] Creating Layer scale4a_branch2c
I1026 22:11:43.154489  7097 net.cpp:406] scale4a_branch2c <- res4a_branch2c
I1026 22:11:43.154491  7097 net.cpp:367] scale4a_branch2c -> res4a_branch2c (in-place)
I1026 22:11:43.154520  7097 layer_factory.hpp:77] Creating layer scale4a_branch2c
I1026 22:11:43.154634  7097 net.cpp:122] Setting up scale4a_branch2c
I1026 22:11:43.154639  7097 net.cpp:129] Top shape: 48 48 64 64 (9437184)
I1026 22:11:43.154641  7097 net.cpp:137] Memory required for data: 1789949952
I1026 22:11:43.154645  7097 layer_factory.hpp:77] Creating layer res4a
I1026 22:11:43.154649  7097 net.cpp:84] Creating Layer res4a
I1026 22:11:43.154651  7097 net.cpp:406] res4a <- res4a_branch1
I1026 22:11:43.154654  7097 net.cpp:406] res4a <- res4a_branch2c
I1026 22:11:43.154659  7097 net.cpp:380] res4a -> res4a
I1026 22:11:43.154692  7097 net.cpp:122] Setting up res4a
I1026 22:11:43.154697  7097 net.cpp:129] Top shape: 48 48 64 64 (9437184)
I1026 22:11:43.154700  7097 net.cpp:137] Memory required for data: 1827698688
I1026 22:11:43.154701  7097 layer_factory.hpp:77] Creating layer res4a_relu
I1026 22:11:43.154706  7097 net.cpp:84] Creating Layer res4a_relu
I1026 22:11:43.154708  7097 net.cpp:406] res4a_relu <- res4a
I1026 22:11:43.154711  7097 net.cpp:367] res4a_relu -> res4a (in-place)
I1026 22:11:43.155135  7097 net.cpp:122] Setting up res4a_relu
I1026 22:11:43.155144  7097 net.cpp:129] Top shape: 48 48 64 64 (9437184)
I1026 22:11:43.155148  7097 net.cpp:137] Memory required for data: 1865447424
I1026 22:11:43.155149  7097 layer_factory.hpp:77] Creating layer res4a_res4a_relu_0_split
I1026 22:11:43.155154  7097 net.cpp:84] Creating Layer res4a_res4a_relu_0_split
I1026 22:11:43.155158  7097 net.cpp:406] res4a_res4a_relu_0_split <- res4a
I1026 22:11:43.155161  7097 net.cpp:380] res4a_res4a_relu_0_split -> res4a_res4a_relu_0_split_0
I1026 22:11:43.155167  7097 net.cpp:380] res4a_res4a_relu_0_split -> res4a_res4a_relu_0_split_1
I1026 22:11:43.155215  7097 net.cpp:122] Setting up res4a_res4a_relu_0_split
I1026 22:11:43.155221  7097 net.cpp:129] Top shape: 48 48 64 64 (9437184)
I1026 22:11:43.155237  7097 net.cpp:129] Top shape: 48 48 64 64 (9437184)
I1026 22:11:43.155267  7097 net.cpp:137] Memory required for data: 1940944896
I1026 22:11:43.155270  7097 layer_factory.hpp:77] Creating layer res4a_branch1_t
I1026 22:11:43.155282  7097 net.cpp:84] Creating Layer res4a_branch1_t
I1026 22:11:43.155284  7097 net.cpp:406] res4a_branch1_t <- res4a_res4a_relu_0_split_0
I1026 22:11:43.155288  7097 net.cpp:380] res4a_branch1_t -> res4a_branch1_t
I1026 22:11:43.156507  7097 net.cpp:122] Setting up res4a_branch1_t
I1026 22:11:43.156549  7097 net.cpp:129] Top shape: 48 64 64 64 (12582912)
I1026 22:11:43.156554  7097 net.cpp:137] Memory required for data: 1991276544
I1026 22:11:43.156563  7097 layer_factory.hpp:77] Creating layer bn4a_branch1_t
I1026 22:11:43.156574  7097 net.cpp:84] Creating Layer bn4a_branch1_t
I1026 22:11:43.156579  7097 net.cpp:406] bn4a_branch1_t <- res4a_branch1_t
I1026 22:11:43.156601  7097 net.cpp:367] bn4a_branch1_t -> res4a_branch1_t (in-place)
I1026 22:11:43.156872  7097 net.cpp:122] Setting up bn4a_branch1_t
I1026 22:11:43.156882  7097 net.cpp:129] Top shape: 48 64 64 64 (12582912)
I1026 22:11:43.156885  7097 net.cpp:137] Memory required for data: 2041608192
I1026 22:11:43.156893  7097 layer_factory.hpp:77] Creating layer scale4a_branch1_t
I1026 22:11:43.156899  7097 net.cpp:84] Creating Layer scale4a_branch1_t
I1026 22:11:43.156903  7097 net.cpp:406] scale4a_branch1_t <- res4a_branch1_t
I1026 22:11:43.156909  7097 net.cpp:367] scale4a_branch1_t -> res4a_branch1_t (in-place)
I1026 22:11:43.156956  7097 layer_factory.hpp:77] Creating layer scale4a_branch1_t
I1026 22:11:43.157079  7097 net.cpp:122] Setting up scale4a_branch1_t
I1026 22:11:43.157088  7097 net.cpp:129] Top shape: 48 64 64 64 (12582912)
I1026 22:11:43.157091  7097 net.cpp:137] Memory required for data: 2091939840
I1026 22:11:43.157096  7097 layer_factory.hpp:77] Creating layer res4a_branch2a_t
I1026 22:11:43.157105  7097 net.cpp:84] Creating Layer res4a_branch2a_t
I1026 22:11:43.157109  7097 net.cpp:406] res4a_branch2a_t <- res4a_res4a_relu_0_split_1
I1026 22:11:43.157116  7097 net.cpp:380] res4a_branch2a_t -> res4a_branch2a_t
I1026 22:11:43.158283  7097 net.cpp:122] Setting up res4a_branch2a_t
I1026 22:11:43.158294  7097 net.cpp:129] Top shape: 48 64 64 64 (12582912)
I1026 22:11:43.158298  7097 net.cpp:137] Memory required for data: 2142271488
I1026 22:11:43.158318  7097 layer_factory.hpp:77] Creating layer bn4a_branch2a_t
I1026 22:11:43.158324  7097 net.cpp:84] Creating Layer bn4a_branch2a_t
I1026 22:11:43.158327  7097 net.cpp:406] bn4a_branch2a_t <- res4a_branch2a_t
I1026 22:11:43.158332  7097 net.cpp:367] bn4a_branch2a_t -> res4a_branch2a_t (in-place)
I1026 22:11:43.158504  7097 net.cpp:122] Setting up bn4a_branch2a_t
I1026 22:11:43.158509  7097 net.cpp:129] Top shape: 48 64 64 64 (12582912)
I1026 22:11:43.158510  7097 net.cpp:137] Memory required for data: 2192603136
I1026 22:11:43.158532  7097 layer_factory.hpp:77] Creating layer scale4a_branch2a_t
I1026 22:11:43.158538  7097 net.cpp:84] Creating Layer scale4a_branch2a_t
I1026 22:11:43.158541  7097 net.cpp:406] scale4a_branch2a_t <- res4a_branch2a_t
I1026 22:11:43.158545  7097 net.cpp:367] scale4a_branch2a_t -> res4a_branch2a_t (in-place)
I1026 22:11:43.158591  7097 layer_factory.hpp:77] Creating layer scale4a_branch2a_t
I1026 22:11:43.158674  7097 net.cpp:122] Setting up scale4a_branch2a_t
I1026 22:11:43.158679  7097 net.cpp:129] Top shape: 48 64 64 64 (12582912)
I1026 22:11:43.158681  7097 net.cpp:137] Memory required for data: 2242934784
I1026 22:11:43.158685  7097 layer_factory.hpp:77] Creating layer res4a_branch2a_relu_t
I1026 22:11:43.158690  7097 net.cpp:84] Creating Layer res4a_branch2a_relu_t
I1026 22:11:43.158694  7097 net.cpp:406] res4a_branch2a_relu_t <- res4a_branch2a_t
I1026 22:11:43.158697  7097 net.cpp:367] res4a_branch2a_relu_t -> res4a_branch2a_t (in-place)
I1026 22:11:43.159056  7097 net.cpp:122] Setting up res4a_branch2a_relu_t
I1026 22:11:43.159065  7097 net.cpp:129] Top shape: 48 64 64 64 (12582912)
I1026 22:11:43.159068  7097 net.cpp:137] Memory required for data: 2293266432
I1026 22:11:43.159071  7097 layer_factory.hpp:77] Creating layer res4a_branch2b_t
I1026 22:11:43.159090  7097 net.cpp:84] Creating Layer res4a_branch2b_t
I1026 22:11:43.159093  7097 net.cpp:406] res4a_branch2b_t <- res4a_branch2a_t
I1026 22:11:43.159098  7097 net.cpp:380] res4a_branch2b_t -> res4a_branch2b_t
I1026 22:11:43.161041  7097 net.cpp:122] Setting up res4a_branch2b_t
I1026 22:11:43.161051  7097 net.cpp:129] Top shape: 48 64 64 64 (12582912)
I1026 22:11:43.161053  7097 net.cpp:137] Memory required for data: 2343598080
I1026 22:11:43.161057  7097 layer_factory.hpp:77] Creating layer bn4a_branch2b_t
I1026 22:11:43.161063  7097 net.cpp:84] Creating Layer bn4a_branch2b_t
I1026 22:11:43.161067  7097 net.cpp:406] bn4a_branch2b_t <- res4a_branch2b_t
I1026 22:11:43.161072  7097 net.cpp:367] bn4a_branch2b_t -> res4a_branch2b_t (in-place)
I1026 22:11:43.161238  7097 net.cpp:122] Setting up bn4a_branch2b_t
I1026 22:11:43.161243  7097 net.cpp:129] Top shape: 48 64 64 64 (12582912)
I1026 22:11:43.161262  7097 net.cpp:137] Memory required for data: 2393929728
I1026 22:11:43.161267  7097 layer_factory.hpp:77] Creating layer scale4a_branch2b_t
I1026 22:11:43.161272  7097 net.cpp:84] Creating Layer scale4a_branch2b_t
I1026 22:11:43.161273  7097 net.cpp:406] scale4a_branch2b_t <- res4a_branch2b_t
I1026 22:11:43.161276  7097 net.cpp:367] scale4a_branch2b_t -> res4a_branch2b_t (in-place)
I1026 22:11:43.161337  7097 layer_factory.hpp:77] Creating layer scale4a_branch2b_t
I1026 22:11:43.161481  7097 net.cpp:122] Setting up scale4a_branch2b_t
I1026 22:11:43.161486  7097 net.cpp:129] Top shape: 48 64 64 64 (12582912)
I1026 22:11:43.161489  7097 net.cpp:137] Memory required for data: 2444261376
I1026 22:11:43.161494  7097 layer_factory.hpp:77] Creating layer res4a_branch2b_relu_t
I1026 22:11:43.161511  7097 net.cpp:84] Creating Layer res4a_branch2b_relu_t
I1026 22:11:43.161514  7097 net.cpp:406] res4a_branch2b_relu_t <- res4a_branch2b_t
I1026 22:11:43.161517  7097 net.cpp:367] res4a_branch2b_relu_t -> res4a_branch2b_t (in-place)
I1026 22:11:43.161869  7097 net.cpp:122] Setting up res4a_branch2b_relu_t
I1026 22:11:43.161877  7097 net.cpp:129] Top shape: 48 64 64 64 (12582912)
I1026 22:11:43.161880  7097 net.cpp:137] Memory required for data: 2494593024
I1026 22:11:43.161882  7097 layer_factory.hpp:77] Creating layer res4a_branch2c_t
I1026 22:11:43.161890  7097 net.cpp:84] Creating Layer res4a_branch2c_t
I1026 22:11:43.161891  7097 net.cpp:406] res4a_branch2c_t <- res4a_branch2b_t
I1026 22:11:43.161896  7097 net.cpp:380] res4a_branch2c_t -> res4a_branch2c_t
I1026 22:11:43.162884  7097 net.cpp:122] Setting up res4a_branch2c_t
I1026 22:11:43.162894  7097 net.cpp:129] Top shape: 48 64 64 64 (12582912)
I1026 22:11:43.162896  7097 net.cpp:137] Memory required for data: 2544924672
I1026 22:11:43.162900  7097 layer_factory.hpp:77] Creating layer bn4a_branch2c_t
I1026 22:11:43.162905  7097 net.cpp:84] Creating Layer bn4a_branch2c_t
I1026 22:11:43.162909  7097 net.cpp:406] bn4a_branch2c_t <- res4a_branch2c_t
I1026 22:11:43.162914  7097 net.cpp:367] bn4a_branch2c_t -> res4a_branch2c_t (in-place)
I1026 22:11:43.163069  7097 net.cpp:122] Setting up bn4a_branch2c_t
I1026 22:11:43.163074  7097 net.cpp:129] Top shape: 48 64 64 64 (12582912)
I1026 22:11:43.163076  7097 net.cpp:137] Memory required for data: 2595256320
I1026 22:11:43.163081  7097 layer_factory.hpp:77] Creating layer scale4a_branch2c_t
I1026 22:11:43.163085  7097 net.cpp:84] Creating Layer scale4a_branch2c_t
I1026 22:11:43.163087  7097 net.cpp:406] scale4a_branch2c_t <- res4a_branch2c_t
I1026 22:11:43.163091  7097 net.cpp:367] scale4a_branch2c_t -> res4a_branch2c_t (in-place)
I1026 22:11:43.163122  7097 layer_factory.hpp:77] Creating layer scale4a_branch2c_t
I1026 22:11:43.163210  7097 net.cpp:122] Setting up scale4a_branch2c_t
I1026 22:11:43.163215  7097 net.cpp:129] Top shape: 48 64 64 64 (12582912)
I1026 22:11:43.163218  7097 net.cpp:137] Memory required for data: 2645587968
I1026 22:11:43.163223  7097 layer_factory.hpp:77] Creating layer res4a_t
I1026 22:11:43.163226  7097 net.cpp:84] Creating Layer res4a_t
I1026 22:11:43.163238  7097 net.cpp:406] res4a_t <- res4a_branch1_t
I1026 22:11:43.163241  7097 net.cpp:406] res4a_t <- res4a_branch2c_t
I1026 22:11:43.163245  7097 net.cpp:380] res4a_t -> res4a_t
I1026 22:11:43.163264  7097 net.cpp:122] Setting up res4a_t
I1026 22:11:43.163269  7097 net.cpp:129] Top shape: 48 64 64 64 (12582912)
I1026 22:11:43.163272  7097 net.cpp:137] Memory required for data: 2695919616
I1026 22:11:43.163275  7097 layer_factory.hpp:77] Creating layer res4a_relu_t
I1026 22:11:43.163277  7097 net.cpp:84] Creating Layer res4a_relu_t
I1026 22:11:43.163280  7097 net.cpp:406] res4a_relu_t <- res4a_t
I1026 22:11:43.163283  7097 net.cpp:367] res4a_relu_t -> res4a_t (in-place)
I1026 22:11:43.163498  7097 net.cpp:122] Setting up res4a_relu_t
I1026 22:11:43.163506  7097 net.cpp:129] Top shape: 48 64 64 64 (12582912)
I1026 22:11:43.163507  7097 net.cpp:137] Memory required for data: 2746251264
I1026 22:11:43.163511  7097 layer_factory.hpp:77] Creating layer res4a_t_res4a_relu_t_0_split
I1026 22:11:43.163514  7097 net.cpp:84] Creating Layer res4a_t_res4a_relu_t_0_split
I1026 22:11:43.163516  7097 net.cpp:406] res4a_t_res4a_relu_t_0_split <- res4a_t
I1026 22:11:43.163542  7097 net.cpp:380] res4a_t_res4a_relu_t_0_split -> res4a_t_res4a_relu_t_0_split_0
I1026 22:11:43.163547  7097 net.cpp:380] res4a_t_res4a_relu_t_0_split -> res4a_t_res4a_relu_t_0_split_1
I1026 22:11:43.163609  7097 net.cpp:122] Setting up res4a_t_res4a_relu_t_0_split
I1026 22:11:43.163625  7097 net.cpp:129] Top shape: 48 64 64 64 (12582912)
I1026 22:11:43.163628  7097 net.cpp:129] Top shape: 48 64 64 64 (12582912)
I1026 22:11:43.163631  7097 net.cpp:137] Memory required for data: 2846914560
I1026 22:11:43.163633  7097 layer_factory.hpp:77] Creating layer conv3_1_1x1_reduce
I1026 22:11:43.163638  7097 net.cpp:84] Creating Layer conv3_1_1x1_reduce
I1026 22:11:43.163641  7097 net.cpp:406] conv3_1_1x1_reduce <- res4a_t_res4a_relu_t_0_split_0
I1026 22:11:43.163645  7097 net.cpp:380] conv3_1_1x1_reduce -> conv3_1_1x1_reduce
I1026 22:11:43.165117  7097 net.cpp:122] Setting up conv3_1_1x1_reduce
I1026 22:11:43.165127  7097 net.cpp:129] Top shape: 48 64 64 64 (12582912)
I1026 22:11:43.165129  7097 net.cpp:137] Memory required for data: 2897246208
I1026 22:11:43.165134  7097 layer_factory.hpp:77] Creating layer conv3_1_1x1_reduce/bn
I1026 22:11:43.165139  7097 net.cpp:84] Creating Layer conv3_1_1x1_reduce/bn
I1026 22:11:43.165143  7097 net.cpp:406] conv3_1_1x1_reduce/bn <- conv3_1_1x1_reduce
I1026 22:11:43.165146  7097 net.cpp:367] conv3_1_1x1_reduce/bn -> conv3_1_1x1_reduce (in-place)
I1026 22:11:43.165307  7097 net.cpp:122] Setting up conv3_1_1x1_reduce/bn
I1026 22:11:43.165313  7097 net.cpp:129] Top shape: 48 64 64 64 (12582912)
I1026 22:11:43.165315  7097 net.cpp:137] Memory required for data: 2947577856
I1026 22:11:43.165320  7097 layer_factory.hpp:77] Creating layer conv3_1_1x1_reduce/bn/scale
I1026 22:11:43.165324  7097 net.cpp:84] Creating Layer conv3_1_1x1_reduce/bn/scale
I1026 22:11:43.165328  7097 net.cpp:406] conv3_1_1x1_reduce/bn/scale <- conv3_1_1x1_reduce
I1026 22:11:43.165330  7097 net.cpp:367] conv3_1_1x1_reduce/bn/scale -> conv3_1_1x1_reduce (in-place)
I1026 22:11:43.165364  7097 layer_factory.hpp:77] Creating layer conv3_1_1x1_reduce/bn/scale
I1026 22:11:43.165488  7097 net.cpp:122] Setting up conv3_1_1x1_reduce/bn/scale
I1026 22:11:43.165493  7097 net.cpp:129] Top shape: 48 64 64 64 (12582912)
I1026 22:11:43.165494  7097 net.cpp:137] Memory required for data: 2997909504
I1026 22:11:43.165498  7097 layer_factory.hpp:77] Creating layer conv3_1_1x1_reduce/relu
I1026 22:11:43.165503  7097 net.cpp:84] Creating Layer conv3_1_1x1_reduce/relu
I1026 22:11:43.165504  7097 net.cpp:406] conv3_1_1x1_reduce/relu <- conv3_1_1x1_reduce
I1026 22:11:43.165508  7097 net.cpp:367] conv3_1_1x1_reduce/relu -> conv3_1_1x1_reduce (in-place)
I1026 22:11:43.165758  7097 net.cpp:122] Setting up conv3_1_1x1_reduce/relu
I1026 22:11:43.165766  7097 net.cpp:129] Top shape: 48 64 64 64 (12582912)
I1026 22:11:43.165767  7097 net.cpp:137] Memory required for data: 3048241152
I1026 22:11:43.165778  7097 layer_factory.hpp:77] Creating layer conv3_1_3x3
I1026 22:11:43.165786  7097 net.cpp:84] Creating Layer conv3_1_3x3
I1026 22:11:43.165788  7097 net.cpp:406] conv3_1_3x3 <- conv3_1_1x1_reduce
I1026 22:11:43.165792  7097 net.cpp:380] conv3_1_3x3 -> conv3_1_3x3
I1026 22:11:43.166996  7097 net.cpp:122] Setting up conv3_1_3x3
I1026 22:11:43.167006  7097 net.cpp:129] Top shape: 48 64 64 64 (12582912)
I1026 22:11:43.167008  7097 net.cpp:137] Memory required for data: 3098572800
I1026 22:11:43.167012  7097 layer_factory.hpp:77] Creating layer conv3_1_3x3/bn
I1026 22:11:43.167017  7097 net.cpp:84] Creating Layer conv3_1_3x3/bn
I1026 22:11:43.167021  7097 net.cpp:406] conv3_1_3x3/bn <- conv3_1_3x3
I1026 22:11:43.167024  7097 net.cpp:367] conv3_1_3x3/bn -> conv3_1_3x3 (in-place)
I1026 22:11:43.167178  7097 net.cpp:122] Setting up conv3_1_3x3/bn
I1026 22:11:43.167183  7097 net.cpp:129] Top shape: 48 64 64 64 (12582912)
I1026 22:11:43.167186  7097 net.cpp:137] Memory required for data: 3148904448
I1026 22:11:43.167191  7097 layer_factory.hpp:77] Creating layer conv3_1_3x3/bn/scale
I1026 22:11:43.167196  7097 net.cpp:84] Creating Layer conv3_1_3x3/bn/scale
I1026 22:11:43.167197  7097 net.cpp:406] conv3_1_3x3/bn/scale <- conv3_1_3x3
I1026 22:11:43.167201  7097 net.cpp:367] conv3_1_3x3/bn/scale -> conv3_1_3x3 (in-place)
I1026 22:11:43.167232  7097 layer_factory.hpp:77] Creating layer conv3_1_3x3/bn/scale
I1026 22:11:43.167318  7097 net.cpp:122] Setting up conv3_1_3x3/bn/scale
I1026 22:11:43.167323  7097 net.cpp:129] Top shape: 48 64 64 64 (12582912)
I1026 22:11:43.167325  7097 net.cpp:137] Memory required for data: 3199236096
I1026 22:11:43.167330  7097 layer_factory.hpp:77] Creating layer conv3_1_3x3/relu
I1026 22:11:43.167333  7097 net.cpp:84] Creating Layer conv3_1_3x3/relu
I1026 22:11:43.167335  7097 net.cpp:406] conv3_1_3x3/relu <- conv3_1_3x3
I1026 22:11:43.167338  7097 net.cpp:367] conv3_1_3x3/relu -> conv3_1_3x3 (in-place)
I1026 22:11:43.167695  7097 net.cpp:122] Setting up conv3_1_3x3/relu
I1026 22:11:43.167703  7097 net.cpp:129] Top shape: 48 64 64 64 (12582912)
I1026 22:11:43.167706  7097 net.cpp:137] Memory required for data: 3249567744
I1026 22:11:43.167708  7097 layer_factory.hpp:77] Creating layer conv3_1_1x1_increase
I1026 22:11:43.167738  7097 net.cpp:84] Creating Layer conv3_1_1x1_increase
I1026 22:11:43.167742  7097 net.cpp:406] conv3_1_1x1_increase <- conv3_1_3x3
I1026 22:11:43.167747  7097 net.cpp:380] conv3_1_1x1_increase -> conv3_1_1x1_increase
I1026 22:11:43.169100  7097 net.cpp:122] Setting up conv3_1_1x1_increase
I1026 22:11:43.169111  7097 net.cpp:129] Top shape: 48 64 64 64 (12582912)
I1026 22:11:43.169113  7097 net.cpp:137] Memory required for data: 3299899392
I1026 22:11:43.169117  7097 layer_factory.hpp:77] Creating layer conv3_1_1x1_increase/bn
I1026 22:11:43.169122  7097 net.cpp:84] Creating Layer conv3_1_1x1_increase/bn
I1026 22:11:43.169126  7097 net.cpp:406] conv3_1_1x1_increase/bn <- conv3_1_1x1_increase
I1026 22:11:43.169129  7097 net.cpp:367] conv3_1_1x1_increase/bn -> conv3_1_1x1_increase (in-place)
I1026 22:11:43.169288  7097 net.cpp:122] Setting up conv3_1_1x1_increase/bn
I1026 22:11:43.169293  7097 net.cpp:129] Top shape: 48 64 64 64 (12582912)
I1026 22:11:43.169296  7097 net.cpp:137] Memory required for data: 3350231040
I1026 22:11:43.169301  7097 layer_factory.hpp:77] Creating layer conv3_1_1x1_increase/bn/scale
I1026 22:11:43.169306  7097 net.cpp:84] Creating Layer conv3_1_1x1_increase/bn/scale
I1026 22:11:43.169307  7097 net.cpp:406] conv3_1_1x1_increase/bn/scale <- conv3_1_1x1_increase
I1026 22:11:43.169312  7097 net.cpp:367] conv3_1_1x1_increase/bn/scale -> conv3_1_1x1_increase (in-place)
I1026 22:11:43.169342  7097 layer_factory.hpp:77] Creating layer conv3_1_1x1_increase/bn/scale
I1026 22:11:43.169428  7097 net.cpp:122] Setting up conv3_1_1x1_increase/bn/scale
I1026 22:11:43.169433  7097 net.cpp:129] Top shape: 48 64 64 64 (12582912)
I1026 22:11:43.169435  7097 net.cpp:137] Memory required for data: 3400562688
I1026 22:11:43.169440  7097 layer_factory.hpp:77] Creating layer conv3_1_1x1_increase_conv3_1_1x1_increase/bn/scale_0_split
I1026 22:11:43.169451  7097 net.cpp:84] Creating Layer conv3_1_1x1_increase_conv3_1_1x1_increase/bn/scale_0_split
I1026 22:11:43.169453  7097 net.cpp:406] conv3_1_1x1_increase_conv3_1_1x1_increase/bn/scale_0_split <- conv3_1_1x1_increase
I1026 22:11:43.169458  7097 net.cpp:380] conv3_1_1x1_increase_conv3_1_1x1_increase/bn/scale_0_split -> conv3_1_1x1_increase_conv3_1_1x1_increase/bn/scale_0_split_0
I1026 22:11:43.169463  7097 net.cpp:380] conv3_1_1x1_increase_conv3_1_1x1_increase/bn/scale_0_split -> conv3_1_1x1_increase_conv3_1_1x1_increase/bn/scale_0_split_1
I1026 22:11:43.169493  7097 net.cpp:122] Setting up conv3_1_1x1_increase_conv3_1_1x1_increase/bn/scale_0_split
I1026 22:11:43.169498  7097 net.cpp:129] Top shape: 48 64 64 64 (12582912)
I1026 22:11:43.169502  7097 net.cpp:129] Top shape: 48 64 64 64 (12582912)
I1026 22:11:43.169503  7097 net.cpp:137] Memory required for data: 3501225984
I1026 22:11:43.169505  7097 layer_factory.hpp:77] Creating layer conv3_1_global_pool
I1026 22:11:43.169509  7097 net.cpp:84] Creating Layer conv3_1_global_pool
I1026 22:11:43.169512  7097 net.cpp:406] conv3_1_global_pool <- conv3_1_1x1_increase_conv3_1_1x1_increase/bn/scale_0_split_0
I1026 22:11:43.169515  7097 net.cpp:380] conv3_1_global_pool -> conv3_1_global_pool
I1026 22:11:43.169533  7097 net.cpp:122] Setting up conv3_1_global_pool
I1026 22:11:43.169538  7097 net.cpp:129] Top shape: 48 64 1 1 (3072)
I1026 22:11:43.169540  7097 net.cpp:137] Memory required for data: 3501238272
I1026 22:11:43.169543  7097 layer_factory.hpp:77] Creating layer conv3_1_1x1_down
I1026 22:11:43.169548  7097 net.cpp:84] Creating Layer conv3_1_1x1_down
I1026 22:11:43.169550  7097 net.cpp:406] conv3_1_1x1_down <- conv3_1_global_pool
I1026 22:11:43.169554  7097 net.cpp:380] conv3_1_1x1_down -> conv3_1_1x1_down
I1026 22:11:43.170718  7097 net.cpp:122] Setting up conv3_1_1x1_down
I1026 22:11:43.170727  7097 net.cpp:129] Top shape: 48 64 1 1 (3072)
I1026 22:11:43.170730  7097 net.cpp:137] Memory required for data: 3501250560
I1026 22:11:43.170735  7097 layer_factory.hpp:77] Creating layer conv3_1_1x1_down/relu
I1026 22:11:43.170740  7097 net.cpp:84] Creating Layer conv3_1_1x1_down/relu
I1026 22:11:43.170744  7097 net.cpp:406] conv3_1_1x1_down/relu <- conv3_1_1x1_down
I1026 22:11:43.170747  7097 net.cpp:367] conv3_1_1x1_down/relu -> conv3_1_1x1_down (in-place)
I1026 22:11:43.171098  7097 net.cpp:122] Setting up conv3_1_1x1_down/relu
I1026 22:11:43.171108  7097 net.cpp:129] Top shape: 48 64 1 1 (3072)
I1026 22:11:43.171110  7097 net.cpp:137] Memory required for data: 3501262848
I1026 22:11:43.171113  7097 layer_factory.hpp:77] Creating layer conv3_1_1x1_up
I1026 22:11:43.171119  7097 net.cpp:84] Creating Layer conv3_1_1x1_up
I1026 22:11:43.171123  7097 net.cpp:406] conv3_1_1x1_up <- conv3_1_1x1_down
I1026 22:11:43.171126  7097 net.cpp:380] conv3_1_1x1_up -> conv3_1_1x1_up
I1026 22:11:43.172163  7097 net.cpp:122] Setting up conv3_1_1x1_up
I1026 22:11:43.172173  7097 net.cpp:129] Top shape: 48 64 1 1 (3072)
I1026 22:11:43.172174  7097 net.cpp:137] Memory required for data: 3501275136
I1026 22:11:43.172179  7097 layer_factory.hpp:77] Creating layer conv3_1_prob
I1026 22:11:43.172184  7097 net.cpp:84] Creating Layer conv3_1_prob
I1026 22:11:43.172188  7097 net.cpp:406] conv3_1_prob <- conv3_1_1x1_up
I1026 22:11:43.172191  7097 net.cpp:367] conv3_1_prob -> conv3_1_1x1_up (in-place)
I1026 22:11:43.172405  7097 net.cpp:122] Setting up conv3_1_prob
I1026 22:11:43.172410  7097 net.cpp:129] Top shape: 48 64 1 1 (3072)
I1026 22:11:43.172413  7097 net.cpp:137] Memory required for data: 3501287424
I1026 22:11:43.172415  7097 layer_factory.hpp:77] Creating layer conv3_1_1x1_proj
I1026 22:11:43.172421  7097 net.cpp:84] Creating Layer conv3_1_1x1_proj
I1026 22:11:43.172425  7097 net.cpp:406] conv3_1_1x1_proj <- res4a_t_res4a_relu_t_0_split_1
I1026 22:11:43.172430  7097 net.cpp:380] conv3_1_1x1_proj -> conv3_1_1x1_proj
I1026 22:11:43.173548  7097 net.cpp:122] Setting up conv3_1_1x1_proj
I1026 22:11:43.173564  7097 net.cpp:129] Top shape: 48 64 64 64 (12582912)
I1026 22:11:43.173568  7097 net.cpp:137] Memory required for data: 3551619072
I1026 22:11:43.173576  7097 layer_factory.hpp:77] Creating layer conv3_1_1x1_proj/bn
I1026 22:11:43.173581  7097 net.cpp:84] Creating Layer conv3_1_1x1_proj/bn
I1026 22:11:43.173584  7097 net.cpp:406] conv3_1_1x1_proj/bn <- conv3_1_1x1_proj
I1026 22:11:43.173589  7097 net.cpp:367] conv3_1_1x1_proj/bn -> conv3_1_1x1_proj (in-place)
I1026 22:11:43.173750  7097 net.cpp:122] Setting up conv3_1_1x1_proj/bn
I1026 22:11:43.173755  7097 net.cpp:129] Top shape: 48 64 64 64 (12582912)
I1026 22:11:43.173758  7097 net.cpp:137] Memory required for data: 3601950720
I1026 22:11:43.173763  7097 layer_factory.hpp:77] Creating layer conv3_1_1x1_proj/bn/scale
I1026 22:11:43.173768  7097 net.cpp:84] Creating Layer conv3_1_1x1_proj/bn/scale
I1026 22:11:43.173770  7097 net.cpp:406] conv3_1_1x1_proj/bn/scale <- conv3_1_1x1_proj
I1026 22:11:43.173774  7097 net.cpp:367] conv3_1_1x1_proj/bn/scale -> conv3_1_1x1_proj (in-place)
I1026 22:11:43.173808  7097 layer_factory.hpp:77] Creating layer conv3_1_1x1_proj/bn/scale
I1026 22:11:43.173931  7097 net.cpp:122] Setting up conv3_1_1x1_proj/bn/scale
I1026 22:11:43.173936  7097 net.cpp:129] Top shape: 48 64 64 64 (12582912)
I1026 22:11:43.173938  7097 net.cpp:137] Memory required for data: 3652282368
I1026 22:11:43.173943  7097 layer_factory.hpp:77] Creating layer conv4_4
I1026 22:11:43.173947  7097 net.cpp:84] Creating Layer conv4_4
I1026 22:11:43.173950  7097 net.cpp:406] conv4_4 <- conv3_1_1x1_up
I1026 22:11:43.173954  7097 net.cpp:406] conv4_4 <- conv3_1_1x1_increase_conv3_1_1x1_increase/bn/scale_0_split_1
I1026 22:11:43.173956  7097 net.cpp:406] conv4_4 <- conv3_1_1x1_proj
I1026 22:11:43.173960  7097 net.cpp:380] conv4_4 -> conv4_4
I1026 22:11:43.173997  7097 net.cpp:122] Setting up conv4_4
I1026 22:11:43.174002  7097 net.cpp:129] Top shape: 48 64 64 64 (12582912)
I1026 22:11:43.174005  7097 net.cpp:137] Memory required for data: 3702614016
I1026 22:11:43.174008  7097 layer_factory.hpp:77] Creating layer conv4_4/relu
I1026 22:11:43.174011  7097 net.cpp:84] Creating Layer conv4_4/relu
I1026 22:11:43.174015  7097 net.cpp:406] conv4_4/relu <- conv4_4
I1026 22:11:43.174018  7097 net.cpp:367] conv4_4/relu -> conv4_4 (in-place)
I1026 22:11:43.174242  7097 net.cpp:122] Setting up conv4_4/relu
I1026 22:11:43.174247  7097 net.cpp:129] Top shape: 48 64 64 64 (12582912)
I1026 22:11:43.174250  7097 net.cpp:137] Memory required for data: 3752945664
I1026 22:11:43.174253  7097 layer_factory.hpp:77] Creating layer conv4_4_end
I1026 22:11:43.174260  7097 net.cpp:84] Creating Layer conv4_4_end
I1026 22:11:43.174263  7097 net.cpp:406] conv4_4_end <- conv4_4
I1026 22:11:43.174268  7097 net.cpp:380] conv4_4_end -> conv4_4_end
I1026 22:11:43.175235  7097 net.cpp:122] Setting up conv4_4_end
I1026 22:11:43.175245  7097 net.cpp:129] Top shape: 48 1 64 64 (196608)
I1026 22:11:43.175247  7097 net.cpp:137] Memory required for data: 3753732096
I1026 22:11:43.175251  7097 layer_factory.hpp:77] Creating layer HR_recovery
I1026 22:11:43.175256  7097 net.cpp:84] Creating Layer HR_recovery
I1026 22:11:43.175261  7097 net.cpp:406] HR_recovery <- data_data_0_split_1
I1026 22:11:43.175264  7097 net.cpp:406] HR_recovery <- conv4_4_end
I1026 22:11:43.175268  7097 net.cpp:380] HR_recovery -> HR_recovery
I1026 22:11:43.175292  7097 net.cpp:122] Setting up HR_recovery
I1026 22:11:43.175297  7097 net.cpp:129] Top shape: 48 1 64 64 (196608)
I1026 22:11:43.175299  7097 net.cpp:137] Memory required for data: 3754518528
I1026 22:11:43.175302  7097 layer_factory.hpp:77] Creating layer loss
I1026 22:11:43.175305  7097 net.cpp:84] Creating Layer loss
I1026 22:11:43.175308  7097 net.cpp:406] loss <- HR_recovery
I1026 22:11:43.175310  7097 net.cpp:406] loss <- label
I1026 22:11:43.175315  7097 net.cpp:380] loss -> loss
I1026 22:11:43.175348  7097 net.cpp:122] Setting up loss
…
I1026 22:11:43.176672  7097 net.cpp:294] The NetState phase (1) differed from the phase (0) specified by a rule in layer conv3_1_1x1_increase/bn
I1026 22:11:43.176676  7097 net.cpp:294] The NetState phase (1) differed from the phase (0) specified by a rule in layer conv3_1_1x1_proj/bn
I1026 22:11:43.177093  7097 net.cpp:51] Initializing net from parameters: 
name: "DSE_TJC_res3_Final"
state {
  phase: TEST
}
layer {
  name: "data"
  type: "HDF5Data"
  top: "data"
  top: "label"
  include {
    phase: TEST
  }
  hdf5_data_param {
    source: "/home/jiaby/aa/tjc_data/rse3/data/train_31_x234.txt"
    batch_size: 1
    shuffle: true
  }
}
layer {
  name: "conv1_1/3x3_s2"
  type: "Convolution"
  bottom: "data"
  top: "conv1_1/3x3_s2"
  param {
    lr_mult: 1
    decay_mult: 1
  }
  convolution_param {
    num_output: 64
    bias_term: false
    pad: 1
    kernel_size: 3
    stride: 1
    weight_filler {
      type: "msra"
    }
  }
}
layer {
  name: "conv1_1/3x3_s2/bn"
  type: "BatchNorm"
  bottom: "conv1_1/3x3_s2"
  top: "conv1_1/3x3_s2"
  param {
    lr_mult: 0
    decay_mult: 0
  }
  param {
    lr_mult: 0
    decay_mult: 0
  }
  param {
    lr_mult: 0
    decay_mult: 0
  }
  include {
    phase: TEST
  }
  batch_norm_param {
    use_global_stats: true
  }
}
layer {
  name: "conv1_1/3x3_s2/bn/scale"
  type: "Scale"
  bottom: "conv1_1/3x3_s2"
  top: "conv1_1/3x3_s2"
  param {
    lr_mult: 1
    decay_mult: 0
  }
  param {
    lr_mult: 1
    decay_mult: 0
  }
  scale_param {
    bias_term: true
  }
}
layer {
  name: "conv1_1/relu_3x3_s2"
  type: "ReLU"
  bottom: "conv1_1/3x3_s2"
  top: "conv1_1/3x3_s2"
}
layer {
  name: "conv2_1_1x1_reduce"
  type: "Convolution"
  bottom: "conv1_1/3x3_s2"
  top: "conv2_1_1x1_reduce"
  param {
    lr_mult: 1
    decay_mult: 1
  }
  convolution_param {
    num_output: 32
    bias_term: false
    pad: 1
    kernel_size: 3
    stride: 1
    weight_filler {
      type: "msra"
    }
  }
}
layer {
  name: "conv2_1_1x1_reduce/bn"
  type: "BatchNorm"
  bottom: "conv2_1_1x1_reduce"
  top: "conv2_1_1x1_reduce"
  param {
    lr_mult: 0
    decay_mult: 0
  }
  param {
    lr_mult: 0
    decay_mult: 0
  }
  param {
    lr_mult: 0
    decay_mult: 0
  }
  include {
    phase: TEST
  }
  batch_norm_param {
    use_global_stats: true
  }
}
layer {
  name: "conv2_1_1x1_reduce/bn/scale"
  type: "Scale"
  bottom: "conv2_1_1x1_reduce"
  top: "conv2_1_1x1_reduce"
  param {
    lr_mult: 1
    decay_mult: 0
  }
  param {
    lr_mult: 1
    decay_mult: 0
  }
  scale_param {
    bias_term: true
  }
}
layer {
  name: "conv2_1_1x1_reduce/relu"
  type: "ReLU"
  bottom: "conv2_1_1x1_reduce"
  top: "conv2_1_1x1_reduce"
}
layer {
  name: "conv2_1_3x3"
  type: "Convolution"
  bottom: "conv2_1_1x1_reduce"
  top: "conv2_1_3x3"
  param {
    lr_mult: 1
    decay_mult: 1
  }
  convolution_param {
    num_output: 32
    bias_term: false
    pad: 1
    kernel_size: 3
    stride: 1
    weight_filler {
      type: "msra"
    }
  }
}
layer {
  name: "conv2_1_3x3/bn"
  type: "BatchNorm"
  bottom: "conv2_1_3x3"
  top: "conv2_1_3x3"
  param {
    lr_mult: 0
    decay_mult: 0
  }
  param {
    lr_mult: 0
    decay_mult: 0
  }
  param {
    lr_mult: 0
    decay_mult: 0
  }
  include {
    phase: TEST
  }
  batch_norm_param {
    use_global_stats: true
  }
}
layer {
  name: "conv2_1_3x3/bn/scale"
  type: "Scale"
  bottom: "conv2_1_3x3"
  top: "conv2_1_3x3"
  param {
    lr_mult: 1
    decay_mult: 0
  }
  param {
    lr_mult: 1
    decay_mult: 0
  }
  scale_param {
    bias_term: true
  }
}
layer {
  name: "conv2_1_3x3/relu"
  type: "ReLU"
  bottom: "conv2_1_3x3"
  top: "conv2_1_3x3"
}
layer {
  name: "conv2_1_1x1_increase"
  type: "Convolution"
  bottom: "conv2_1_3x3"
  top: "conv2_1_1x1_increase"
  param {
    lr_mult: 1
    decay_mult: 1
  }
  convolution_param {
    num_output: 32
    bias_term: false
    pad: 1
    kernel_size: 3
    stride: 1
    weight_filler {
      type: "msra"
    }
  }
}
layer {
  name: "conv2_1_1x1_increase/bn"
  type: "BatchNorm"
  bottom: "conv2_1_1x1_increase"
  top: "conv2_1_1x1_increase"
  param {
    lr_mult: 0
    decay_mult: 0
  }
  param {
    lr_mult: 0
    decay_mult: 0
  }
  param {
    lr_mult: 0
    decay_mult: 0
  }
  include {
    phase: TEST
  }
  batch_norm_param {
    use_global_stats: true
  }
}
layer {
  name: "conv2_1_1x1_increase/bn/scale"
  type: "Scale"
  bottom: "conv2_1_1x1_increase"
  top: "conv2_1_1x1_increase"
  param {
    lr_mult: 1
    decay_mult: 0
  }
  param {
    lr_mult: 1
    decay_mult: 0
  }
  scale_param {
    bias_term: true
  }
}
layer {
  name: "conv2_1_global_pool"
  type: "Pooling"
  bottom: "conv2_1_1x1_increase"
  top: "conv2_1_global_pool"
  pooling_param {
    pool: AVE
    engine: CAFFE
    global_pooling: true
  }
}
layer {
  name: "conv2_1_1x1_down"
  type: "Convolution"
  bottom: "conv2_1_global_pool"
  top: "conv2_1_1x1_down"
  param {
    lr_mult: 1
    decay_mult: 1
  }
  convolution_param {
    num_output: 32
    kernel_size: 1
    stride: 1
    weight_filler {
      type: "msra"
    }
  }
}
layer {
  name: "conv2_1_1x1_down/relu"
  type: "ReLU"
  bottom: "conv2_1_1x1_down"
  top: "conv2_1_1x1_down"
}
layer {
  name: "conv2_1_1x1_up"
  type: "Convolution"
  bottom: "conv2_1_1x1_down"
  top: "conv2_1_1x1_up"
  param {
    lr_mult: 1
    decay_mult: 1
  }
  convolution_param {
    num_output: 32
    kernel_size: 1
    stride: 1
    weight_filler {
      type: "msra"
    }
  }
}
layer {
  name: "conv2_1_prob"
  type: "Sigmoid"
  bottom: "conv2_1_1x1_up"
  top: "conv2_1_1x1_up"
}
layer {
  name: "conv2_1_1x1_proj"
  type: "Convolution"
  bottom: "conv1_1/3x3_s2"
  top: "conv2_1_1x1_proj"
  param {
    lr_mult: 1
    decay_mult: 1
  }
  convolution_param {
    num_output: 32
    bias_term: false
    kernel_size: 1
    stride: 1
    weight_filler {
      type: "msra"
    }
  }
}
layer {
  name: "conv2_1_1x1_proj/bn"
  type: "BatchNorm"
  bottom: "conv2_1_1x1_proj"
  top: "conv2_1_1x1_proj"
  param {
    lr_mult: 0
    decay_mult: 0
  }
  param {
    lr_mult: 0
    decay_mult: 0
  }
  param {
    lr_mult: 0
    decay_mult: 0
  }
  include {
    phase: TEST
  }
  batch_norm_param {
    use_global_stats: true
  }
}
layer {
  name: "conv2_1_1x1_proj/bn/scale"
  type: "Scale"
  bottom: "conv2_1_1x1_proj"
  top: "conv2_1_1x1_proj"
  param {
    lr_mult: 1
    decay_mult: 0
  }
  param {
    lr_mult: 1
    decay_mult: 0
  }
  scale_param {
    bias_term: true
  }
}
layer {
  name: "conv2_1"
  type: "Axpy"
  bottom: "conv2_1_1x1_up"
  bottom: "conv2_1_1x1_increase"
  bottom: "conv2_1_1x1_proj"
  top: "conv2_1"
}
layer {
  name: "conv2_1/relu"
  type: "ReLU"
  bottom: "conv2_1"
  top: "conv2_1"
}
layer {
  name: "res3a_branch1"
  type: "Convolution"
  bottom: "conv2_1"
  top: "res3a_branch1"
  param {
    lr_mult: 1
  }
  convolution_param {
    num_output: 32
    bias_term: false
    pad: 0
    kernel_size: 1
    stride: 1
    weight_filler {
      type: "msra"
    }
  }
}
layer {
  name: "bn3a_branch1"
  type: "BatchNorm"
  bottom: "res3a_branch1"
  top: "res3a_branch1"
  param {
    lr_mult: 0
    decay_mult: 0
  }
  param {
    lr_mult: 0
    decay_mult: 0
  }
  param {
    lr_mult: 0
    decay_mult: 0
  }
  include {
    phase: TEST
  }
  batch_norm_param {
    use_global_stats: true
  }
}
layer {
  name: "scale3a_branch1"
  type: "Scale"
  bottom: "res3a_branch1"
  top: "res3a_branch1"
  scale_param {
    bias_term: true
  }
}
layer {
  name: "res3a_branch2a"
  type: "Convolution"
  bottom: "conv2_1"
  top: "res3a_branch2a"
  param {
    lr_mult: 1
  }
  convolution_param {
    num_output: 32
    bias_term: false
    pad: 0
    kernel_size: 1
    stride: 1
    weight_filler {
      type: "msra"
    }
  }
}
layer {
  name: "bn3a_branch2a"
  type: "BatchNorm"
  bottom: "res3a_branch2a"
  top: "res3a_branch2a"
  param {
    lr_mult: 0
    decay_mult: 0
  }
  param {
    lr_mult: 0
    decay_mult: 0
  }
  param {
    lr_mult: 0
    decay_mult: 0
  }
  include {
    phase: TEST
  }
  batch_norm_param {
    use_global_stats: true
  }
}
layer {
  name: "scale3a_branch2a"
  type: "Scale"
  bottom: "res3a_branch2a"
  top: "res3a_branch2a"
  scale_param {
    bias_term: true
  }
}
layer {
  name: "res3a_branch2a_relu"
  type: "ReLU"
  bottom: "res3a_branch2a"
  top: "res3a_branch2a"
}
layer {
  name: "res3a_branch2b"
  type: "Convolution"
  bottom: "res3a_branch2a"
  top: "res3a_branch2b"
  param {
    lr_mult: 1
  }
  convolution_param {
    num_output: 32
    bias_term: false
    pad: 1
    kernel_size: 3
    group: 2
    stride: 1
    weight_filler {
      type: "msra"
    }
  }
}
layer {
  name: "bn3a_branch2b"
  type: "BatchNorm"
  bottom: "res3a_branch2b"
  top: "res3a_branch2b"
  param {
    lr_mult: 0
    decay_mult: 0
  }
  param {
    lr_mult: 0
    decay_mult: 0
  }
  param {
    lr_mult: 0
    decay_mult: 0
  }
  include {
    phase: TEST
  }
  batch_norm_param {
    use_global_stats: true
  }
}
layer {
  name: "scale3a_branch2b"
  type: "Scale"
  bottom: "res3a_branch2b"
  top: "res3a_branch2b"
  scale_param {
    bias_term: true
  }
}
layer {
  name: "res3a_branch2b_relu"
  type: "ReLU"
  bottom: "res3a_branch2b"
  top: "res3a_branch2b"
}
layer {
  name: "res3a_branch2c"
  type: "Convolution"
  bottom: "res3a_branch2b"
  top: "res3a_branch2c"
  param {
    lr_mult: 1
  }
  convolution_param {
    num_output: 32
    bias_term: false
    pad: 0
    kernel_size: 1
    stride: 1
    weight_filler {
      type: "msra"
    }
  }
}
layer {
  name: "bn3a_branch2c"
  type: "BatchNorm"
  bottom: "res3a_branch2c"
  top: "res3a_branch2c"
  param {
    lr_mult: 0
    decay_mult: 0
  }
  param {
    lr_mult: 0
    decay_mult: 0
  }
  param {
    lr_mult: 0
    decay_mult: 0
  }
  include {
    phase: TEST
  }
  batch_norm_param {
    use_global_stats: true
  }
}
layer {
  name: "scale3a_branch2c"
  type: "Scale"
  bottom: "res3a_branch2c"
  top: "res3a_branch2c"
  scale_param {
    bias_term: true
  }
}
layer {
  name: "res3a"
  type: "Eltwise"
  bottom: "res3a_branch1"
  bottom: "res3a_branch2c"
  top: "res3a"
}
layer {
  name: "res3a_relu"
  type: "ReLU"
  bottom: "res3a"
  top: "res3a"
}
layer {
  name: "res4a_branch1"
  type: "Convolution"
  bottom: "res3a"
  top: "res4a_branch1"
  param {
    lr_mult: 1
  }
  convolution_param {
    num_output: 48
    bias_term: false
    pad: 0
    kernel_size: 1
    stride: 1
    weight_filler {
      type: "msra"
    }
  }
}
layer {
  name: "bn4a_branch1"
  type: "BatchNorm"
  bottom: "res4a_branch1"
  top: "res4a_branch1"
  param {
    lr_mult: 0
    decay_mult: 0
  }
  param {
    lr_mult: 0
    decay_mult: 0
  }
  param {
    lr_mult: 0
    decay_mult: 0
  }
  include {
    phase: TEST
  }
  batch_norm_param {
    use_global_stats: true
  }
}
layer {
  name: "scale4a_branch1"
  type: "Scale"
  bottom: "res4a_branch1"
  top: "res4a_branch1"
  scale_param {
    bias_term: true
  }
}
layer {
  name: "res4a_branch2a"
  type: "Convolution"
  bottom: "res3a"
  top: "res4a_branch2a"
  param {
    lr_mult: 1
  }
  convolution_param {
    num_output: 48
    bias_term: false
    pad: 0
    kernel_size: 1
    stride: 1
    weight_filler {
      type: "msra"
    }
  }
}
layer {
  name: "bn4a_branch2a"
  type: "BatchNorm"
  bottom: "res4a_branch2a"
  top: "res4a_branch2a"
  param {
    lr_mult: 0
    decay_mult: 0
  }
  param {
    lr_mult: 0
    decay_mult: 0
  }
  param {
    lr_mult: 0
    decay_mult: 0
  }
  include {
    phase: TEST
  }
  batch_norm_param {
    use_global_stats: true
  }
}
layer {
  name: "scale4a_branch2a"
  type: "Scale"
  bottom: "res4a_branch2a"
  top: "res4a_branch2a"
  scale_param {
    bias_term: true
  }
}
layer {
  name: "res4a_branch2a_relu"
  type: "ReLU"
  bottom: "res4a_branch2a"
  top: "res4a_branch2a"
}
layer {
  name: "res4a_branch2b"
  type: "Convolution"
  bottom: "res4a_branch2a"
  top: "res4a_branch2b"
  param {
    lr_mult: 1
  }
  convolution_param {
    num_output: 48
    bias_term: false
    pad: 1
    kernel_size: 3
    group: 2
    stride: 1
    weight_filler {
      type: "msra"
    }
  }
}
layer {
  name: "bn4a_branch2b"
  type: "BatchNorm"
  bottom: "res4a_branch2b"
  top: "res4a_branch2b"
  param {
    lr_mult: 0
    decay_mult: 0
  }
  param {
    lr_mult: 0
    decay_mult: 0
  }
  param {
    lr_mult: 0
    decay_mult: 0
  }
  include {
    phase: TEST
  }
  batch_norm_param {
    use_global_stats: true
  }
}
layer {
  name: "scale4a_branch2b"
  type: "Scale"
  bottom: "res4a_branch2b"
  top: "res4a_branch2b"
  scale_param {
    bias_term: true
  }
}
layer {
  name: "res4a_branch2b_relu"
  type: "ReLU"
  bottom: "res4a_branch2b"
  top: "res4a_branch2b"
}
layer {
  name: "res4a_branch2c"
  type: "Convolution"
  bottom: "res4a_branch2b"
  top: "res4a_branch2c"
  param {
    lr_mult: 1
  }
  convolution_param {
    num_output: 48
    bias_term: false
    pad: 0
    kernel_size: 1
    stride: 1
    weight_filler {
      type: "msra"
    }
  }
}
layer {
  name: "bn4a_branch2c"
  type: "BatchNorm"
  bottom: "res4a_branch2c"
  top: "res4a_branch2c"
  param {
    lr_mult: 0
    decay_mult: 0
  }
  param {
    lr_mult: 0
    decay_mult: 0
  }
  param {
    lr_mult: 0
    decay_mult: 0
  }
  include {
    phase: TEST
  }
  batch_norm_param {
    use_global_stats: true
  }
}
layer {
  name: "scale4a_branch2c"
  type: "Scale"
  bottom: "res4a_branch2c"
  top: "res4a_branch2c"
  scale_param {
    bias_term: true
  }
}
layer {
  name: "res4a"
  type: "Eltwise"
  bottom: "res4a_branch1"
  bottom: "res4a_branch2c"
  top: "res4a"
}
layer {
  name: "res4a_relu"
  type: "ReLU"
  bottom: "res4a"
  top: "res4a"
}
layer {
  name: "res4a_branch1_t"
  type: "Convolution"
  bottom: "res4a"
  top: "res4a_branch1_t"
  param {
    lr_mult: 1
  }
  convolution_param {
    num_output: 64
    bias_term: false
    pad: 0
    kernel_size: 1
    stride: 1
    weight_filler {
      type: "msra"
    }
  }
}
layer {
  name: "bn4a_branch1_t"
  type: "BatchNorm"
  bottom: "res4a_branch1_t"
  top: "res4a_branch1_t"
  param {
    lr_mult: 0
    decay_mult: 0
  }
  param {
    lr_mult: 0
    decay_mult: 0
  }
  param {
    lr_mult: 0
    decay_mult: 0
  }
  include {
    phase: TEST
  }
  batch_norm_param {
    use_global_stats: true
  }
}
layer {
  name: "scale4a_branch1_t"
  type: "Scale"
  bottom: "res4a_branch1_t"
  top: "res4a_branch1_t"
  scale_param {
    bias_term: true
  }
}
layer {
  name: "res4a_branch2a_t"
  type: "Convolution"
  bottom: "res4a"
  top: "res4a_branch2a_t"
  param {
    lr_mult: 1
  }
  convolution_param {
    num_output: 64
    bias_term: false
    pad: 0
    kernel_size: 1
    stride: 1
    weight_filler {
      type: "msra"
    }
  }
}
layer {
  name: "bn4a_branch2a_t"
  type: "BatchNorm"
  bottom: "res4a_branch2a_t"
  top: "res4a_branch2a_t"
  param {
    lr_mult: 0
    decay_mult: 0
  }
  param {
    lr_mult: 0
    decay_mult: 0
  }
  param {
    lr_mult: 0
    decay_mult: 0
  }
  include {
    phase: TEST
  }
  batch_norm_param {
    use_global_stats: true
  }
}
layer {
  name: "scale4a_branch2a_t"
  type: "Scale"
  bottom: "res4a_branch2a_t"
  top: "res4a_branch2a_t"
  scale_param {
    bias_term: true
  }
}
layer {
  name: "res4a_branch2a_relu_t"
  type: "ReLU"
  bottom: "res4a_branch2a_t"
  top: "res4a_branch2a_t"
}
layer {
  name: "res4a_branch2b_t"
  type: "Convolution"
  bottom: "res4a_branch2a_t"
  top: "res4a_branch2b_t"
  param {
    lr_mult: 1
  }
  convolution_param {
    num_output: 64
    bias_term: false
    pad: 1
    kernel_size: 3
    group: 2
    stride: 1
    weight_filler {
      type: "msra"
    }
  }
}
layer {
  name: "bn4a_branch2b_t"
  type: "BatchNorm"
  bottom: "res4a_branch2b_t"
  top: "res4a_branch2b_t"
  param {
    lr_mult: 0
    decay_mult: 0
  }
  param {
    lr_mult: 0
    decay_mult: 0
  }
  param {
    lr_mult: 0
    decay_mult: 0
  }
  include {
    phase: TEST
  }
  batch_norm_param {
    use_global_stats: true
  }
}
layer {
  name: "scale4a_branch2b_t"
  type: "Scale"
  bottom: "res4a_branch2b_t"
  top: "res4a_branch2b_t"
  scale_param {
    bias_term: true
  }
}
layer {
  name: "res4a_branch2b_relu_t"
  type: "ReLU"
  bottom: "res4a_branch2b_t"
  top: "res4a_branch2b_t"
}
layer {
  name: "res4a_branch2c_t"
  type: "Convolution"
  bottom: "res4a_branch2b_t"
  top: "res4a_branch2c_t"
  param {
    lr_mult: 1
  }
  convolution_param {
    num_output: 64
    bias_term: false
    pad: 0
    kernel_size: 1
    stride: 1
    weight_filler {
      type: "msra"
    }
  }
}
layer {
  name: "bn4a_branch2c_t"
  type: "BatchNorm"
  bottom: "res4a_branch2c_t"
  top: "res4a_branch2c_t"
  param {
    lr_mult: 0
    decay_mult: 0
  }
  param {
    lr_mult: 0
    decay_mult: 0
  }
  param {
    lr_mult: 0
    decay_mult: 0
  }
  include {
    phase: TEST
  }
  batch_norm_param {
    use_global_stats: true
  }
}
layer {
  name: "scale4a_branch2c_t"
  type: "Scale"
  bottom: "res4a_branch2c_t"
  top: "res4a_branch2c_t"
  scale_param {
    bias_term: true
  }
}
layer {
  name: "res4a_t"
  type: "Eltwise"
  bottom: "res4a_branch1_t"
  bottom: "res4a_branch2c_t"
  top: "res4a_t"
}
layer {
  name: "res4a_relu_t"
  type: "ReLU"
  bottom: "res4a_t"
  top: "res4a_t"
}
layer {
  name: "conv3_1_1x1_reduce"
  type: "Convolution"
  bottom: "res4a_t"
  top: "conv3_1_1x1_reduce"
  param {
    lr_mult: 1
    decay_mult: 1
  }
  convolution_param {
    num_output: 64
    bias_term: false
    pad: 1
    kernel_size: 3
    stride: 1
    weight_filler {
      type: "msra"
    }
  }
}
layer {
  name: "conv3_1_1x1_reduce/bn"
  type: "BatchNorm"
  bottom: "conv3_1_1x1_reduce"
  top: "conv3_1_1x1_reduce"
  param {
    lr_mult: 0
    decay_mult: 0
  }
  param {
    lr_mult: 0
    decay_mult: 0
  }
  param {
    lr_mult: 0
    decay_mult: 0
  }
  include {
    phase: TEST
  }
  batch_norm_param {
    use_global_stats: true
  }
}
layer {
  name: "conv3_1_1x1_reduce/bn/scale"
  type: "Scale"
  bottom: "conv3_1_1x1_reduce"
  top: "conv3_1_1x1_reduce"
  param {
    lr_mult: 1
    decay_mult: 0
  }
  param {
    lr_mult: 1
    decay_mult: 0
  }
  scale_param {
    bias_term: true
  }
}
layer {
  name: "conv3_1_1x1_reduce/relu"
  type: "ReLU"
  bottom: "conv3_1_1x1_reduce"
  top: "conv3_1_1x1_reduce"
}
layer {
  name: "conv3_1_3x3"
  type: "Convolution"
  bottom: "conv3_1_1x1_reduce"
  top: "conv3_1_3x3"
  param {
    lr_mult: 1
    decay_mult: 1
  }
  convolution_param {
    num_output: 64
    bias_term: false
    pad: 1
    kernel_size: 3
    stride: 1
    weight_filler {
      type: "msra"
    }
  }
}
layer {
  name: "conv3_1_3x3/bn"
  type: "BatchNorm"
  bottom: "conv3_1_3x3"
  top: "conv3_1_3x3"
  param {
    lr_mult: 0
    decay_mult: 0
  }
  param {
    lr_mult: 0
    decay_mult: 0
  }
  param {
    lr_mult: 0
    decay_mult: 0
  }
  include {
    phase: TEST
  }
  batch_norm_param {
    use_global_stats: true
  }
}
layer {
  name: "conv3_1_3x3/bn/scale"
  type: "Scale"
  bottom: "conv3_1_3x3"
  top: "conv3_1_3x3"
  param {
    lr_mult: 1
    decay_mult: 0
  }
  param {
    lr_mult: 1
    decay_mult: 0
  }
  scale_param {
    bias_term: true
  }
}
layer {
  name: "conv3_1_3x3/relu"
  type: "ReLU"
  bottom: "conv3_1_3x3"
  top: "conv3_1_3x3"
}
layer {
  name: "conv3_1_1x1_increase"
  type: "Convolution"
  bottom: "conv3_1_3x3"
  top: "conv3_1_1x1_increase"
  param {
    lr_mult: 1
    decay_mult: 1
  }
  convolution_param {
    num_output: 64
    bias_term: false
    pad: 1
    kernel_size: 3
    stride: 1
    weight_filler {
      type: "msra"
    }
  }
}
layer {
  name: "conv3_1_1x1_increase/bn"
  type: "BatchNorm"
  bottom: "conv3_1_1x1_increase"
  top: "conv3_1_1x1_increase"
  param {
    lr_mult: 0
    decay_mult: 0
  }
  param {
    lr_mult: 0
    decay_mult: 0
  }
  param {
    lr_mult: 0
    decay_mult: 0
  }
  include {
    phase: TEST
  }
  batch_norm_param {
    use_global_stats: true
  }
}
layer {
  name: "conv3_1_1x1_increase/bn/scale"
  type: "Scale"
  bottom: "conv3_1_1x1_increase"
  top: "conv3_1_1x1_increase"
  param {
    lr_mult: 1
    decay_mult: 0
  }
  param {
    lr_mult: 1
    decay_mult: 0
  }
  scale_param {
    bias_term: true
  }
}
layer {
  name: "conv3_1_global_pool"
  type: "Pooling"
  bottom: "conv3_1_1x1_increase"
  top: "conv3_1_global_pool"
  pooling_param {
    pool: AVE
    engine: CAFFE
    global_pooling: true
  }
}
layer {
  name: "conv3_1_1x1_down"
  type: "Convolution"
  bottom: "conv3_1_global_pool"
  top: "conv3_1_1x1_down"
  param {
    lr_mult: 1
    decay_mult: 1
  }
  convolution_param {
    num_output: 64
    kernel_size: 1
    stride: 1
    weight_filler {
      type: "msra"
    }
  }
}
layer {
  name: "conv3_1_1x1_down/relu"
  type: "ReLU"
  bottom: "conv3_1_1x1_down"
  top: "conv3_1_1x1_down"
}
layer {
  name: "conv3_1_1x1_up"
  type: "Convolution"
  bottom: "conv3_1_1x1_down"
  top: "conv3_1_1x1_up"
  param {
    lr_mult: 1
    decay_mult: 1
  }
  convolution_param {
    num_output: 64
    kernel_size: 1
    stride: 1
    weight_filler {
      type: "msra"
    }
  }
}
layer {
  name: "conv3_1_prob"
  type: "Sigmoid"
  bottom: "conv3_1_1x1_up"
  top: "conv3_1_1x1_up"
}
layer {
  name: "conv3_1_1x1_proj"
  type: "Convolution"
  bottom: "res4a_t"
  top: "conv3_1_1x1_proj"
  param {
    lr_mult: 1
    decay_mult: 1
  }
  convolution_param {
    num_output: 64
    bias_term: false
    kernel_size: 1
    stride: 1
    weight_filler {
      type: "msra"
    }
  }
}
layer {
  name: "conv3_1_1x1_proj/bn"
  type: "BatchNorm"
  bottom: "conv3_1_1x1_proj"
  top: "conv3_1_1x1_proj"
  param {
    lr_mult: 0
    decay_mult: 0
  }
  param {
    lr_mult: 0
    decay_mult: 0
  }
  param {
    lr_mult: 0
    decay_mult: 0
  }
  include {
    phase: TEST
  }
  batch_norm_param {
    use_global_stats: true
  }
}
layer {
  name: "conv3_1_1x1_proj/bn/scale"
  type: "Scale"
  bottom: "conv3_1_1x1_proj"
  top: "conv3_1_1x1_proj"
  param {
    lr_mult: 1
    decay_mult: 0
  }
  param {
    lr_mult: 1
    decay_mult: 0
  }
  scale_param {
    bias_term: true
  }
}
layer {
  name: "conv4_4"
  type: "Axpy"
  bottom: "conv3_1_1x1_up"
  bottom: "conv3_1_1x1_increase"
  bottom: "conv3_1_1x1_proj"
  top: "conv4_4"
}
layer {
  name: "conv4_4/relu"
  type: "ReLU"
  bottom: "conv4_4"
  top: "conv4_4"
}
layer {
  name: "conv4_4_end"
  type: "Convolution"
  bottom: "conv4_4"
  top: "conv4_4_end"
  param {
    lr_mult: 1
    decay_mult: 1
  }
  convolution_param {
    num_output: 1
    bias_term: false
    pad: 1
    kernel_size: 3
    stride: 1
    weight_filler {
      type: "msra"
    }
  }
}
layer {
  name: "HR_recovery"
  type: "Eltwise"
  bottom: "data"
  bottom: "conv4_4_end"
  top: "HR_recovery"
  eltwise_param {
    operation: SUM
  }
}
layer {
  name: "loss"
  type: "EuclideanLoss"
  bottom: "HR_recovery"
  bottom: "label"
  top: "loss"
}
I1026 22:11:43.177315  7097 layer_factory.hpp:77] Creating layer data
I1026 22:11:43.177322  7097 net.cpp:84] Creating Layer data
I1026 22:11:43.177325  7097 net.cpp:380] data -> data
I1026 22:11:43.177331  7097 net.cpp:380] data -> label
I1026 22:11:43.177336  7097 hdf5_data_layer.cpp:80] Loading list of HDF5 filenames from: /home/jiaby/aa/tjc_data/rse3/data/train_31_x234.txt
I1026 22:11:43.177353  7097 hdf5_data_layer.cpp:94] Number of HDF5 files: 1
I1026 22:14:30.503623  7097 net.cpp:122] Setting up data
I1026 22:14:30.505442  7097 net.cpp:129] Top shape: 1 1 64 64 (4096)
I1026 22:14:30.505448  7097 net.cpp:129] Top shape: 1 1 64 64 (4096)
I1026 22:14:30.505451  7097 net.cpp:137] Memory required for data: 32768
I1026 22:14:30.505789  7097 layer_factory.hpp:77] Creating layer data_data_0_split
I1026 22:14:30.506505  7097 net.cpp:84] Creating Layer data_data_0_split
I1026 22:14:30.506508  7097 net.cpp:406] data_data_0_split <- data
I1026 22:14:30.506958  7097 net.cpp:380] data_data_0_split -> data_data_0_split_0
I1026 22:14:30.507261  7097 net.cpp:380] data_data_0_split -> data_data_0_split_1
I1026 22:14:30.507309  7097 net.cpp:122] Setting up data_data_0_split
I1026 22:14:30.507314  7097 net.cpp:129] Top shape: 1 1 64 64 (4096)
I1026 22:14:30.507318  7097 net.cpp:129] Top shape: 1 1 64 64 (4096)
I1026 22:14:30.507319  7097 net.cpp:137] Memory required for data: 65536
I1026 22:14:30.507321  7097 layer_factory.hpp:77] Creating layer conv1_1/3x3_s2
I1026 22:14:30.507642  7097 net.cpp:84] Creating Layer conv1_1/3x3_s2
I1026 22:14:30.507647  7097 net.cpp:406] conv1_1/3x3_s2 <- data_data_0_split_0
I1026 22:14:30.507650  7097 net.cpp:380] conv1_1/3x3_s2 -> conv1_1/3x3_s2
I1026 22:14:30.519457  7097 net.cpp:122] Setting up conv1_1/3x3_s2
I1026 22:14:30.519470  7097 net.cpp:129] Top shape: 1 64 64 64 (262144)
I1026 22:14:30.519474  7097 net.cpp:137] Memory required for data: 1114112
I1026 22:14:30.519481  7097 layer_factory.hpp:77] Creating layer conv1_1/3x3_s2/bn
I1026 22:14:30.519908  7097 net.cpp:84] Creating Layer conv1_1/3x3_s2/bn
I1026 22:14:30.519914  7097 net.cpp:406] conv1_1/3x3_s2/bn <- conv1_1/3x3_s2
I1026 22:14:30.519934  7097 net.cpp:367] conv1_1/3x3_s2/bn -> conv1_1/3x3_s2 (in-place)
I1026 22:14:30.520144  7097 net.cpp:122] Setting up conv1_1/3x3_s2/bn
I1026 22:14:30.520150  7097 net.cpp:129] Top shape: 1 64 64 64 (262144)
I1026 22:14:30.520153  7097 net.cpp:137] Memory required for data: 2162688
I1026 22:14:30.520175  7097 layer_factory.hpp:77] Creating layer conv1_1/3x3_s2/bn/scale
I1026 22:14:30.520375  7097 net.cpp:84] Creating Layer conv1_1/3x3_s2/bn/scale
I1026 22:14:30.520385  7097 net.cpp:406] conv1_1/3x3_s2/bn/scale <- conv1_1/3x3_s2
I1026 22:14:30.520404  7097 net.cpp:367] conv1_1/3x3_s2/bn/scale -> conv1_1/3x3_s2 (in-place)
I1026 22:14:30.520460  7097 layer_factory.hpp:77] Creating layer conv1_1/3x3_s2/bn/scale
I1026 22:14:30.520586  7097 net.cpp:122] Setting up conv1_1/3x3_s2/bn/scale
I1026 22:14:30.520591  7097 net.cpp:129] Top shape: 1 64 64 64 (262144)
I1026 22:14:30.520609  7097 net.cpp:137] Memory required for data: 3211264
I1026 22:14:30.520617  7097 layer_factory.hpp:77] Creating layer conv1_1/relu_3x3_s2
I1026 22:14:30.520622  7097 net.cpp:84] Creating Layer conv1_1/relu_3x3_s2
I1026 22:14:30.520624  7097 net.cpp:406] conv1_1/relu_3x3_s2 <- conv1_1/3x3_s2
I1026 22:14:30.520629  7097 net.cpp:367] conv1_1/relu_3x3_s2 -> conv1_1/3x3_s2 (in-place)
I1026 22:14:30.521291  7097 net.cpp:122] Setting up conv1_1/relu_3x3_s2
I1026 22:14:30.521301  7097 net.cpp:129] Top shape: 1 64 64 64 (262144)
I1026 22:14:30.521304  7097 net.cpp:137] Memory required for data: 4259840
I1026 22:14:30.521322  7097 layer_factory.hpp:77] Creating layer conv1_1/3x3_s2_conv1_1/relu_3x3_s2_0_split
I1026 22:14:30.521330  7097 net.cpp:84] Creating Layer conv1_1/3x3_s2_conv1_1/relu_3x3_s2_0_split
I1026 22:14:30.521333  7097 net.cpp:406] conv1_1/3x3_s2_conv1_1/relu_3x3_s2_0_split <- conv1_1/3x3_s2
I1026 22:14:30.521338  7097 net.cpp:380] conv1_1/3x3_s2_conv1_1/relu_3x3_s2_0_split -> conv1_1/3x3_s2_conv1_1/relu_3x3_s2_0_split_0
I1026 22:14:30.521344  7097 net.cpp:380] conv1_1/3x3_s2_conv1_1/relu_3x3_s2_0_split -> conv1_1/3x3_s2_conv1_1/relu_3x3_s2_0_split_1
I1026 22:14:30.521384  7097 net.cpp:122] Setting up conv1_1/3x3_s2_conv1_1/relu_3x3_s2_0_split
I1026 22:14:30.521389  7097 net.cpp:129] Top shape: 1 64 64 64 (262144)
I1026 22:14:30.521392  7097 net.cpp:129] Top shape: 1 64 64 64 (262144)
I1026 22:14:30.521394  7097 net.cpp:137] Memory required for data: 6356992
I1026 22:14:30.521397  7097 layer_factory.hpp:77] Creating layer conv2_1_1x1_reduce
I1026 22:14:30.521415  7097 net.cpp:84] Creating Layer conv2_1_1x1_reduce
I1026 22:14:30.521420  7097 net.cpp:406] conv2_1_1x1_reduce <- conv1_1/3x3_s2_conv1_1/relu_3x3_s2_0_split_0
I1026 22:14:30.521425  7097 net.cpp:380] conv2_1_1x1_reduce -> conv2_1_1x1_reduce
I1026 22:14:30.522931  7097 net.cpp:122] Setting up conv2_1_1x1_reduce
I1026 22:14:30.522943  7097 net.cpp:129] Top shape: 1 32 64 64 (131072)
I1026 22:14:30.522946  7097 net.cpp:137] Memory required for data: 6881280
I1026 22:14:30.522950  7097 layer_factory.hpp:77] Creating layer conv2_1_1x1_reduce/bn
I1026 22:14:30.522958  7097 net.cpp:84] Creating Layer conv2_1_1x1_reduce/bn
I1026 22:14:30.522963  7097 net.cpp:406] conv2_1_1x1_reduce/bn <- conv2_1_1x1_reduce
I1026 22:14:30.522967  7097 net.cpp:367] conv2_1_1x1_reduce/bn -> conv2_1_1x1_reduce (in-place)
I1026 22:14:30.523155  7097 net.cpp:122] Setting up conv2_1_1x1_reduce/bn
I1026 22:14:30.523161  7097 net.cpp:129] Top shape: 1 32 64 64 (131072)
I1026 22:14:30.523164  7097 net.cpp:137] Memory required for data: 7405568
I1026 22:14:30.523170  7097 layer_factory.hpp:77] Creating layer conv2_1_1x1_reduce/bn/scale
I1026 22:14:30.523177  7097 net.cpp:84] Creating Layer conv2_1_1x1_reduce/bn/scale
I1026 22:14:30.523180  7097 net.cpp:406] conv2_1_1x1_reduce/bn/scale <- conv2_1_1x1_reduce
I1026 22:14:30.523185  7097 net.cpp:367] conv2_1_1x1_reduce/bn/scale -> conv2_1_1x1_reduce (in-place)
I1026 22:14:30.523219  7097 layer_factory.hpp:77] Creating layer conv2_1_1x1_reduce/bn/scale
I1026 22:14:30.523324  7097 net.cpp:122] Setting up conv2_1_1x1_reduce/bn/scale
I1026 22:14:30.523329  7097 net.cpp:129] Top shape: 1 32 64 64 (131072)
I1026 22:14:30.523331  7097 net.cpp:137] Memory required for data: 7929856
I1026 22:14:30.523335  7097 layer_factory.hpp:77] Creating layer conv2_1_1x1_reduce/relu
I1026 22:14:30.523340  7097 net.cpp:84] Creating Layer conv2_1_1x1_reduce/relu
I1026 22:14:30.523344  7097 net.cpp:406] conv2_1_1x1_reduce/relu <- conv2_1_1x1_reduce
I1026 22:14:30.523349  7097 net.cpp:367] conv2_1_1x1_reduce/relu -> conv2_1_1x1_reduce (in-place)
I1026 22:14:30.523741  7097 net.cpp:122] Setting up conv2_1_1x1_reduce/relu
I1026 22:14:30.523749  7097 net.cpp:129] Top shape: 1 32 64 64 (131072)
I1026 22:14:30.523753  7097 net.cpp:137] Memory required for data: 8454144
I1026 22:14:30.523756  7097 layer_factory.hpp:77] Creating layer conv2_1_3x3
I1026 22:14:30.523763  7097 net.cpp:84] Creating Layer conv2_1_3x3
I1026 22:14:30.523767  7097 net.cpp:406] conv2_1_3x3 <- conv2_1_1x1_reduce
I1026 22:14:30.523773  7097 net.cpp:380] conv2_1_3x3 -> conv2_1_3x3
I1026 22:14:30.525199  7097 net.cpp:122] Setting up conv2_1_3x3
I1026 22:14:30.525212  7097 net.cpp:129] Top shape: 1 32 64 64 (131072)
I1026 22:14:30.525214  7097 net.cpp:137] Memory required for data: 8978432
I1026 22:14:30.525219  7097 layer_factory.hpp:77] Creating layer conv2_1_3x3/bn
I1026 22:14:30.525225  7097 net.cpp:84] Creating Layer conv2_1_3x3/bn
I1026 22:14:30.525228  7097 net.cpp:406] conv2_1_3x3/bn <- conv2_1_3x3
I1026 22:14:30.525233  7097 net.cpp:367] conv2_1_3x3/bn -> conv2_1_3x3 (in-place)
I1026 22:14:30.525406  7097 net.cpp:122] Setting up conv2_1_3x3/bn
I1026 22:14:30.525413  7097 net.cpp:129] Top shape: 1 32 64 64 (131072)
I1026 22:14:30.525414  7097 net.cpp:137] Memory required for data: 9502720
I1026 22:14:30.525419  7097 layer_factory.hpp:77] Creating layer conv2_1_3x3/bn/scale
I1026 22:14:30.525426  7097 net.cpp:84] Creating Layer conv2_1_3x3/bn/scale
I1026 22:14:30.525429  7097 net.cpp:406] conv2_1_3x3/bn/scale <- conv2_1_3x3
I1026 22:14:30.525434  7097 net.cpp:367] conv2_1_3x3/bn/scale -> conv2_1_3x3 (in-place)
I1026 22:14:30.525466  7097 layer_factory.hpp:77] Creating layer conv2_1_3x3/bn/scale
I1026 22:14:30.525564  7097 net.cpp:122] Setting up conv2_1_3x3/bn/scale
I1026 22:14:30.525569  7097 net.cpp:129] Top shape: 1 32 64 64 (131072)
I1026 22:14:30.525571  7097 net.cpp:137] Memory required for data: 10027008
I1026 22:14:30.525578  7097 layer_factory.hpp:77] Creating layer conv2_1_3x3/relu
I1026 22:14:30.525583  7097 net.cpp:84] Creating Layer conv2_1_3x3/relu
I1026 22:14:30.525594  7097 net.cpp:406] conv2_1_3x3/relu <- conv2_1_3x3
I1026 22:14:30.525599  7097 net.cpp:367] conv2_1_3x3/relu -> conv2_1_3x3 (in-place)
I1026 22:14:30.526067  7097 net.cpp:122] Setting up conv2_1_3x3/relu
I1026 22:14:30.526077  7097 net.cpp:129] Top shape: 1 32 64 64 (131072)
I1026 22:14:30.526079  7097 net.cpp:137] Memory required for data: 10551296
I1026 22:14:30.526082  7097 layer_factory.hpp:77] Creating layer conv2_1_1x1_increase
I1026 22:14:30.526090  7097 net.cpp:84] Creating Layer conv2_1_1x1_increase
I1026 22:14:30.526094  7097 net.cpp:406] conv2_1_1x1_increase <- conv2_1_3x3
I1026 22:14:30.526099  7097 net.cpp:380] conv2_1_1x1_increase -> conv2_1_1x1_increase
I1026 22:14:30.527240  7097 net.cpp:122] Setting up conv2_1_1x1_increase
I1026 22:14:30.527253  7097 net.cpp:129] Top shape: 1 32 64 64 (131072)
I1026 22:14:30.527256  7097 net.cpp:137] Memory required for data: 11075584
I1026 22:14:30.527261  7097 layer_factory.hpp:77] Creating layer conv2_1_1x1_increase/bn
I1026 22:14:30.527271  7097 net.cpp:84] Creating Layer conv2_1_1x1_increase/bn
I1026 22:14:30.527274  7097 net.cpp:406] conv2_1_1x1_increase/bn <- conv2_1_1x1_increase
I1026 22:14:30.527281  7097 net.cpp:367] conv2_1_1x1_increase/bn -> conv2_1_1x1_increase (in-place)
I1026 22:14:30.527532  7097 net.cpp:122] Setting up conv2_1_1x1_increase/bn
I1026 22:14:30.527552  7097 net.cpp:129] Top shape: 1 32 64 64 (131072)
I1026 22:14:30.527555  7097 net.cpp:137] Memory required for data: 11599872
I1026 22:14:30.527562  7097 layer_factory.hpp:77] Creating layer conv2_1_1x1_increase/bn/scale
I1026 22:14:30.527571  7097 net.cpp:84] Creating Layer conv2_1_1x1_increase/bn/scale
I1026 22:14:30.527575  7097 net.cpp:406] conv2_1_1x1_increase/bn/scale <- conv2_1_1x1_increase
I1026 22:14:30.527582  7097 net.cpp:367] conv2_1_1x1_increase/bn/scale -> conv2_1_1x1_increase (in-place)
I1026 22:14:30.527621  7097 layer_factory.hpp:77] Creating layer conv2_1_1x1_increase/bn/scale
I1026 22:14:30.527770  7097 net.cpp:122] Setting up conv2_1_1x1_increase/bn/scale
I1026 22:14:30.527776  7097 net.cpp:129] Top shape: 1 32 64 64 (131072)
I1026 22:14:30.527778  7097 net.cpp:137] Memory required for data: 12124160
I1026 22:14:30.527799  7097 layer_factory.hpp:77] Creating layer conv2_1_1x1_increase_conv2_1_1x1_increase/bn/scale_0_split
I1026 22:14:30.527806  7097 net.cpp:84] Creating Layer conv2_1_1x1_increase_conv2_1_1x1_increase/bn/scale_0_split
I1026 22:14:30.527809  7097 net.cpp:406] conv2_1_1x1_increase_conv2_1_1x1_increase/bn/scale_0_split <- conv2_1_1x1_increase
I1026 22:14:30.527814  7097 net.cpp:380] conv2_1_1x1_increase_conv2_1_1x1_increase/bn/scale_0_split -> conv2_1_1x1_increase_conv2_1_1x1_increase/bn/scale_0_split_0
I1026 22:14:30.527822  7097 net.cpp:380] conv2_1_1x1_increase_conv2_1_1x1_increase/bn/scale_0_split -> conv2_1_1x1_increase_conv2_1_1x1_increase/bn/scale_0_split_1
I1026 22:14:30.527858  7097 net.cpp:122] Setting up conv2_1_1x1_increase_conv2_1_1x1_increase/bn/scale_0_split
I1026 22:14:30.527879  7097 net.cpp:129] Top shape: 1 32 64 64 (131072)
I1026 22:14:30.527884  7097 net.cpp:129] Top shape: 1 32 64 64 (131072)
I1026 22:14:30.527887  7097 net.cpp:137] Memory required for data: 13172736
I1026 22:14:30.527890  7097 layer_factory.hpp:77] Creating layer conv2_1_global_pool
I1026 22:14:30.527899  7097 net.cpp:84] Creating Layer conv2_1_global_pool
I1026 22:14:30.527902  7097 net.cpp:406] conv2_1_global_pool <- conv2_1_1x1_increase_conv2_1_1x1_increase/bn/scale_0_split_0
I1026 22:14:30.527909  7097 net.cpp:380] conv2_1_global_pool -> conv2_1_global_pool
I1026 22:14:30.527933  7097 net.cpp:122] Setting up conv2_1_global_pool
I1026 22:14:30.527938  7097 net.cpp:129] Top shape: 1 32 1 1 (32)
I1026 22:14:30.527940  7097 net.cpp:137] Memory required for data: 13172864
I1026 22:14:30.527943  7097 layer_factory.hpp:77] Creating layer conv2_1_1x1_down
I1026 22:14:30.527956  7097 net.cpp:84] Creating Layer conv2_1_1x1_down
I1026 22:14:30.527959  7097 net.cpp:406] conv2_1_1x1_down <- conv2_1_global_pool
I1026 22:14:30.527966  7097 net.cpp:380] conv2_1_1x1_down -> conv2_1_1x1_down
I1026 22:14:30.529741  7097 net.cpp:122] Setting up conv2_1_1x1_down
I1026 22:14:30.529760  7097 net.cpp:129] Top shape: 1 32 1 1 (32)
I1026 22:14:30.529763  7097 net.cpp:137] Memory required for data: 13172992
I1026 22:14:30.529772  7097 layer_factory.hpp:77] Creating layer conv2_1_1x1_down/relu
I1026 22:14:30.529798  7097 net.cpp:84] Creating Layer conv2_1_1x1_down/relu
I1026 22:14:30.529804  7097 net.cpp:406] conv2_1_1x1_down/relu <- conv2_1_1x1_down
I1026 22:14:30.529814  7097 net.cpp:367] conv2_1_1x1_down/relu -> conv2_1_1x1_down (in-place)
I1026 22:14:30.530261  7097 net.cpp:122] Setting up conv2_1_1x1_down/relu
I1026 22:14:30.530270  7097 net.cpp:129] Top shape: 1 32 1 1 (32)
I1026 22:14:30.530273  7097 net.cpp:137] Memory required for data: 13173120
I1026 22:14:30.530277  7097 layer_factory.hpp:77] Creating layer conv2_1_1x1_up
I1026 22:14:30.530287  7097 net.cpp:84] Creating Layer conv2_1_1x1_up
I1026 22:14:30.530292  7097 net.cpp:406] conv2_1_1x1_up <- conv2_1_1x1_down
I1026 22:14:30.530298  7097 net.cpp:380] conv2_1_1x1_up -> conv2_1_1x1_up
I1026 22:14:30.531605  7097 net.cpp:122] Setting up conv2_1_1x1_up
I1026 22:14:30.531628  7097 net.cpp:129] Top shape: 1 32 1 1 (32)
I1026 22:14:30.531646  7097 net.cpp:137] Memory required for data: 13173248
I1026 22:14:30.531652  7097 layer_factory.hpp:77] Creating layer conv2_1_prob
I1026 22:14:30.531658  7097 net.cpp:84] Creating Layer conv2_1_prob
I1026 22:14:30.531661  7097 net.cpp:406] conv2_1_prob <- conv2_1_1x1_up
I1026 22:14:30.531666  7097 net.cpp:367] conv2_1_prob -> conv2_1_1x1_up (in-place)
I1026 22:14:30.531956  7097 net.cpp:122] Setting up conv2_1_prob
I1026 22:14:30.531965  7097 net.cpp:129] Top shape: 1 32 1 1 (32)
I1026 22:14:30.531967  7097 net.cpp:137] Memory required for data: 13173376
I1026 22:14:30.531970  7097 layer_factory.hpp:77] Creating layer conv2_1_1x1_proj
I1026 22:14:30.531978  7097 net.cpp:84] Creating Layer conv2_1_1x1_proj
I1026 22:14:30.531982  7097 net.cpp:406] conv2_1_1x1_proj <- conv1_1/3x3_s2_conv1_1/relu_3x3_s2_0_split_1
I1026 22:14:30.531988  7097 net.cpp:380] conv2_1_1x1_proj -> conv2_1_1x1_proj
I1026 22:14:30.533217  7097 net.cpp:122] Setting up conv2_1_1x1_proj
I1026 22:14:30.533229  7097 net.cpp:129] Top shape: 1 32 64 64 (131072)
I1026 22:14:30.533232  7097 net.cpp:137] Memory required for data: 13697664
I1026 22:14:30.533236  7097 layer_factory.hpp:77] Creating layer conv2_1_1x1_proj/bn
I1026 22:14:30.533244  7097 net.cpp:84] Creating Layer conv2_1_1x1_proj/bn
I1026 22:14:30.533247  7097 net.cpp:406] conv2_1_1x1_proj/bn <- conv2_1_1x1_proj
I1026 22:14:30.533254  7097 net.cpp:367] conv2_1_1x1_proj/bn -> conv2_1_1x1_proj (in-place)
I1026 22:14:30.533439  7097 net.cpp:122] Setting up conv2_1_1x1_proj/bn
I1026 22:14:30.533445  7097 net.cpp:129] Top shape: 1 32 64 64 (131072)
I1026 22:14:30.533447  7097 net.cpp:137] Memory required for data: 14221952
I1026 22:14:30.533453  7097 layer_factory.hpp:77] Creating layer conv2_1_1x1_proj/bn/scale
I1026 22:14:30.533459  7097 net.cpp:84] Creating Layer conv2_1_1x1_proj/bn/scale
I1026 22:14:30.533463  7097 net.cpp:406] conv2_1_1x1_proj/bn/scale <- conv2_1_1x1_proj
I1026 22:14:30.533468  7097 net.cpp:367] conv2_1_1x1_proj/bn/scale -> conv2_1_1x1_proj (in-place)
I1026 22:14:30.533504  7097 layer_factory.hpp:77] Creating layer conv2_1_1x1_proj/bn/scale
I1026 22:14:30.533607  7097 net.cpp:122] Setting up conv2_1_1x1_proj/bn/scale
I1026 22:14:30.533612  7097 net.cpp:129] Top shape: 1 32 64 64 (131072)
I1026 22:14:30.533615  7097 net.cpp:137] Memory required for data: 14746240
I1026 22:14:30.533623  7097 layer_factory.hpp:77] Creating layer conv2_1
I1026 22:14:30.533633  7097 net.cpp:84] Creating Layer conv2_1
I1026 22:14:30.533638  7097 net.cpp:406] conv2_1 <- conv2_1_1x1_up
I1026 22:14:30.533641  7097 net.cpp:406] conv2_1 <- conv2_1_1x1_increase_conv2_1_1x1_increase/bn/scale_0_split_1
I1026 22:14:30.533645  7097 net.cpp:406] conv2_1 <- conv2_1_1x1_proj
I1026 22:14:30.533649  7097 net.cpp:380] conv2_1 -> conv2_1
I1026 22:14:30.533712  7097 net.cpp:122] Setting up conv2_1
I1026 22:14:30.533728  7097 net.cpp:129] Top shape: 1 32 64 64 (131072)
I1026 22:14:30.533732  7097 net.cpp:137] Memory required for data: 15270528
I1026 22:14:30.533735  7097 layer_factory.hpp:77] Creating layer conv2_1/relu
I1026 22:14:30.533740  7097 net.cpp:84] Creating Layer conv2_1/relu
I1026 22:14:30.533741  7097 net.cpp:406] conv2_1/relu <- conv2_1
I1026 22:14:30.533746  7097 net.cpp:367] conv2_1/relu -> conv2_1 (in-place)
I1026 22:14:30.533990  7097 net.cpp:122] Setting up conv2_1/relu
I1026 22:14:30.533998  7097 net.cpp:129] Top shape: 1 32 64 64 (131072)
I1026 22:14:30.534000  7097 net.cpp:137] Memory required for data: 15794816
I1026 22:14:30.534003  7097 layer_factory.hpp:77] Creating layer conv2_1_conv2_1/relu_0_split
I1026 22:14:30.534008  7097 net.cpp:84] Creating Layer conv2_1_conv2_1/relu_0_split
I1026 22:14:30.534013  7097 net.cpp:406] conv2_1_conv2_1/relu_0_split <- conv2_1
I1026 22:14:30.534016  7097 net.cpp:380] conv2_1_conv2_1/relu_0_split -> conv2_1_conv2_1/relu_0_split_0
I1026 22:14:30.534024  7097 net.cpp:380] conv2_1_conv2_1/relu_0_split -> conv2_1_conv2_1/relu_0_split_1
I1026 22:14:30.534061  7097 net.cpp:122] Setting up conv2_1_conv2_1/relu_0_split
I1026 22:14:30.534066  7097 net.cpp:129] Top shape: 1 32 64 64 (131072)
I1026 22:14:30.534068  7097 net.cpp:129] Top shape: 1 32 64 64 (131072)
I1026 22:14:30.534071  7097 net.cpp:137] Memory required for data: 16843392
I1026 22:14:30.534073  7097 layer_factory.hpp:77] Creating layer res3a_branch1
I1026 22:14:30.534081  7097 net.cpp:84] Creating Layer res3a_branch1
I1026 22:14:30.534085  7097 net.cpp:406] res3a_branch1 <- conv2_1_conv2_1/relu_0_split_0
I1026 22:14:30.534090  7097 net.cpp:380] res3a_branch1 -> res3a_branch1
I1026 22:14:30.535158  7097 net.cpp:122] Setting up res3a_branch1
I1026 22:14:30.535167  7097 net.cpp:129] Top shape: 1 32 64 64 (131072)
I1026 22:14:30.535171  7097 net.cpp:137] Memory required for data: 17367680
I1026 22:14:30.535174  7097 layer_factory.hpp:77] Creating layer bn3a_branch1
I1026 22:14:30.535181  7097 net.cpp:84] Creating Layer bn3a_branch1
I1026 22:14:30.535184  7097 net.cpp:406] bn3a_branch1 <- res3a_branch1
I1026 22:14:30.535189  7097 net.cpp:367] bn3a_branch1 -> res3a_branch1 (in-place)
I1026 22:14:30.535369  7097 net.cpp:122] Setting up bn3a_branch1
I1026 22:14:30.535374  7097 net.cpp:129] Top shape: 1 32 64 64 (131072)
I1026 22:14:30.535377  7097 net.cpp:137] Memory required for data: 17891968
I1026 22:14:30.535382  7097 layer_factory.hpp:77] Creating layer scale3a_branch1
I1026 22:14:30.535389  7097 net.cpp:84] Creating Layer scale3a_branch1
I1026 22:14:30.535392  7097 net.cpp:406] scale3a_branch1 <- res3a_branch1
I1026 22:14:30.535396  7097 net.cpp:367] scale3a_branch1 -> res3a_branch1 (in-place)
I1026 22:14:30.535429  7097 layer_factory.hpp:77] Creating layer scale3a_branch1
I1026 22:14:30.535533  7097 net.cpp:122] Setting up scale3a_branch1
I1026 22:14:30.535539  7097 net.cpp:129] Top shape: 1 32 64 64 (131072)
I1026 22:14:30.535542  7097 net.cpp:137] Memory required for data: 18416256
I1026 22:14:30.535547  7097 layer_factory.hpp:77] Creating layer res3a_branch2a
I1026 22:14:30.535555  7097 net.cpp:84] Creating Layer res3a_branch2a
I1026 22:14:30.535558  7097 net.cpp:406] res3a_branch2a <- conv2_1_conv2_1/relu_0_split_1
I1026 22:14:30.535563  7097 net.cpp:380] res3a_branch2a -> res3a_branch2a
I1026 22:14:30.536965  7097 net.cpp:122] Setting up res3a_branch2a
I1026 22:14:30.536978  7097 net.cpp:129] Top shape: 1 32 64 64 (131072)
I1026 22:14:30.536981  7097 net.cpp:137] Memory required for data: 18940544
I1026 22:14:30.536986  7097 layer_factory.hpp:77] Creating layer bn3a_branch2a
I1026 22:14:30.536993  7097 net.cpp:84] Creating Layer bn3a_branch2a
I1026 22:14:30.536996  7097 net.cpp:406] bn3a_branch2a <- res3a_branch2a
I1026 22:14:30.537003  7097 net.cpp:367] bn3a_branch2a -> res3a_branch2a (in-place)
I1026 22:14:30.537217  7097 net.cpp:122] Setting up bn3a_branch2a
I1026 22:14:30.537223  7097 net.cpp:129] Top shape: 1 32 64 64 (131072)
I1026 22:14:30.537226  7097 net.cpp:137] Memory required for data: 19464832
I1026 22:14:30.537243  7097 layer_factory.hpp:77] Creating layer scale3a_branch2a
I1026 22:14:30.537250  7097 net.cpp:84] Creating Layer scale3a_branch2a
I1026 22:14:30.537252  7097 net.cpp:406] scale3a_branch2a <- res3a_branch2a
I1026 22:14:30.537257  7097 net.cpp:367] scale3a_branch2a -> res3a_branch2a (in-place)
I1026 22:14:30.537294  7097 layer_factory.hpp:77] Creating layer scale3a_branch2a
I1026 22:14:30.537398  7097 net.cpp:122] Setting up scale3a_branch2a
I1026 22:14:30.537405  7097 net.cpp:129] Top shape: 1 32 64 64 (131072)
I1026 22:14:30.537407  7097 net.cpp:137] Memory required for data: 19989120
I1026 22:14:30.537411  7097 layer_factory.hpp:77] Creating layer res3a_branch2a_relu
I1026 22:14:30.537416  7097 net.cpp:84] Creating Layer res3a_branch2a_relu
I1026 22:14:30.537420  7097 net.cpp:406] res3a_branch2a_relu <- res3a_branch2a
I1026 22:14:30.537423  7097 net.cpp:367] res3a_branch2a_relu -> res3a_branch2a (in-place)
I1026 22:14:30.537729  7097 net.cpp:122] Setting up res3a_branch2a_relu
I1026 22:14:30.537736  7097 net.cpp:129] Top shape: 1 32 64 64 (131072)
I1026 22:14:30.537739  7097 net.cpp:137] Memory required for data: 20513408
I1026 22:14:30.537740  7097 layer_factory.hpp:77] Creating layer res3a_branch2b
I1026 22:14:30.537748  7097 net.cpp:84] Creating Layer res3a_branch2b
I1026 22:14:30.537751  7097 net.cpp:406] res3a_branch2b <- res3a_branch2a
I1026 22:14:30.537756  7097 net.cpp:380] res3a_branch2b -> res3a_branch2b
I1026 22:14:30.539960  7097 net.cpp:122] Setting up res3a_branch2b
I1026 22:14:30.539973  7097 net.cpp:129] Top shape: 1 32 64 64 (131072)
I1026 22:14:30.539975  7097 net.cpp:137] Memory required for data: 21037696
I1026 22:14:30.539980  7097 layer_factory.hpp:77] Creating layer bn3a_branch2b
I1026 22:14:30.539988  7097 net.cpp:84] Creating Layer bn3a_branch2b
I1026 22:14:30.539993  7097 net.cpp:406] bn3a_branch2b <- res3a_branch2b
I1026 22:14:30.539997  7097 net.cpp:367] bn3a_branch2b -> res3a_branch2b (in-place)
I1026 22:14:30.540210  7097 net.cpp:122] Setting up bn3a_branch2b
I1026 22:14:30.540215  7097 net.cpp:129] Top shape: 1 32 64 64 (131072)
I1026 22:14:30.540218  7097 net.cpp:137] Memory required for data: 21561984
I1026 22:14:30.540223  7097 layer_factory.hpp:77] Creating layer scale3a_branch2b
I1026 22:14:30.540228  7097 net.cpp:84] Creating Layer scale3a_branch2b
I1026 22:14:30.540231  7097 net.cpp:406] scale3a_branch2b <- res3a_branch2b
I1026 22:14:30.540235  7097 net.cpp:367] scale3a_branch2b -> res3a_branch2b (in-place)
I1026 22:14:30.540271  7097 layer_factory.hpp:77] Creating layer scale3a_branch2b
I1026 22:14:30.540374  7097 net.cpp:122] Setting up scale3a_branch2b
I1026 22:14:30.540380  7097 net.cpp:129] Top shape: 1 32 64 64 (131072)
I1026 22:14:30.540381  7097 net.cpp:137] Memory required for data: 22086272
I1026 22:14:30.540385  7097 layer_factory.hpp:77] Creating layer res3a_branch2b_relu
I1026 22:14:30.540390  7097 net.cpp:84] Creating Layer res3a_branch2b_relu
I1026 22:14:30.540392  7097 net.cpp:406] res3a_branch2b_relu <- res3a_branch2b
I1026 22:14:30.540397  7097 net.cpp:367] res3a_branch2b_relu -> res3a_branch2b (in-place)
I1026 22:14:30.540637  7097 net.cpp:122] Setting up res3a_branch2b_relu
I1026 22:14:30.540643  7097 net.cpp:129] Top shape: 1 32 64 64 (131072)
I1026 22:14:30.540645  7097 net.cpp:137] Memory required for data: 22610560
I1026 22:14:30.540649  7097 layer_factory.hpp:77] Creating layer res3a_branch2c
I1026 22:14:30.540657  7097 net.cpp:84] Creating Layer res3a_branch2c
I1026 22:14:30.540659  7097 net.cpp:406] res3a_branch2c <- res3a_branch2b
I1026 22:14:30.540664  7097 net.cpp:380] res3a_branch2c -> res3a_branch2c
I1026 22:14:30.541718  7097 net.cpp:122] Setting up res3a_branch2c
I1026 22:14:30.541726  7097 net.cpp:129] Top shape: 1 32 64 64 (131072)
I1026 22:14:30.541729  7097 net.cpp:137] Memory required for data: 23134848
I1026 22:14:30.541733  7097 layer_factory.hpp:77] Creating layer bn3a_branch2c
I1026 22:14:30.541741  7097 net.cpp:84] Creating Layer bn3a_branch2c
I1026 22:14:30.541744  7097 net.cpp:406] bn3a_branch2c <- res3a_branch2c
I1026 22:14:30.541760  7097 net.cpp:367] bn3a_branch2c -> res3a_branch2c (in-place)
I1026 22:14:30.541980  7097 net.cpp:122] Setting up bn3a_branch2c
I1026 22:14:30.541987  7097 net.cpp:129] Top shape: 1 32 64 64 (131072)
I1026 22:14:30.541990  7097 net.cpp:137] Memory required for data: 23659136
I1026 22:14:30.541998  7097 layer_factory.hpp:77] Creating layer scale3a_branch2c
I1026 22:14:30.542006  7097 net.cpp:84] Creating Layer scale3a_branch2c
I1026 22:14:30.542009  7097 net.cpp:406] scale3a_branch2c <- res3a_branch2c
I1026 22:14:30.542016  7097 net.cpp:367] scale3a_branch2c -> res3a_branch2c (in-place)
I1026 22:14:30.542052  7097 layer_factory.hpp:77] Creating layer scale3a_branch2c
I1026 22:14:30.542155  7097 net.cpp:122] Setting up scale3a_branch2c
I1026 22:14:30.542160  7097 net.cpp:129] Top shape: 1 32 64 64 (131072)
I1026 22:14:30.542162  7097 net.cpp:137] Memory required for data: 24183424
I1026 22:14:30.542168  7097 layer_factory.hpp:77] Creating layer res3a
I1026 22:14:30.542174  7097 net.cpp:84] Creating Layer res3a
I1026 22:14:30.542178  7097 net.cpp:406] res3a <- res3a_branch1
I1026 22:14:30.542183  7097 net.cpp:406] res3a <- res3a_branch2c
I1026 22:14:30.542188  7097 net.cpp:380] res3a -> res3a
I1026 22:14:30.542212  7097 net.cpp:122] Setting up res3a
I1026 22:14:30.542217  7097 net.cpp:129] Top shape: 1 32 64 64 (131072)
I1026 22:14:30.542219  7097 net.cpp:137] Memory required for data: 24707712
I1026 22:14:30.542223  7097 layer_factory.hpp:77] Creating layer res3a_relu
I1026 22:14:30.542229  7097 net.cpp:84] Creating Layer res3a_relu
I1026 22:14:30.542232  7097 net.cpp:406] res3a_relu <- res3a
I1026 22:14:30.542238  7097 net.cpp:367] res3a_relu -> res3a (in-place)
I1026 22:14:30.542623  7097 net.cpp:122] Setting up res3a_relu
I1026 22:14:30.542634  7097 net.cpp:129] Top shape: 1 32 64 64 (131072)
I1026 22:14:30.542639  7097 net.cpp:137] Memory required for data: 25232000
I1026 22:14:30.542641  7097 layer_factory.hpp:77] Creating layer res3a_res3a_relu_0_split
I1026 22:14:30.542649  7097 net.cpp:84] Creating Layer res3a_res3a_relu_0_split
I1026 22:14:30.542652  7097 net.cpp:406] res3a_res3a_relu_0_split <- res3a
I1026 22:14:30.542657  7097 net.cpp:380] res3a_res3a_relu_0_split -> res3a_res3a_relu_0_split_0
I1026 22:14:30.542665  7097 net.cpp:380] res3a_res3a_relu_0_split -> res3a_res3a_relu_0_split_1
I1026 22:14:30.542703  7097 net.cpp:122] Setting up res3a_res3a_relu_0_split
I1026 22:14:30.542708  7097 net.cpp:129] Top shape: 1 32 64 64 (131072)
I1026 22:14:30.542711  7097 net.cpp:129] Top shape: 1 32 64 64 (131072)
I1026 22:14:30.542713  7097 net.cpp:137] Memory required for data: 26280576
I1026 22:14:30.542716  7097 layer_factory.hpp:77] Creating layer res4a_branch1
I1026 22:14:30.542723  7097 net.cpp:84] Creating Layer res4a_branch1
I1026 22:14:30.542726  7097 net.cpp:406] res4a_branch1 <- res3a_res3a_relu_0_split_0
I1026 22:14:30.542732  7097 net.cpp:380] res4a_branch1 -> res4a_branch1
I1026 22:14:30.543812  7097 net.cpp:122] Setting up res4a_branch1
I1026 22:14:30.543821  7097 net.cpp:129] Top shape: 1 48 64 64 (196608)
I1026 22:14:30.543825  7097 net.cpp:137] Memory required for data: 27067008
I1026 22:14:30.543829  7097 layer_factory.hpp:77] Creating layer bn4a_branch1
I1026 22:14:30.543836  7097 net.cpp:84] Creating Layer bn4a_branch1
I1026 22:14:30.543839  7097 net.cpp:406] bn4a_branch1 <- res4a_branch1
I1026 22:14:30.543845  7097 net.cpp:367] bn4a_branch1 -> res4a_branch1 (in-place)
I1026 22:14:30.544067  7097 net.cpp:122] Setting up bn4a_branch1
I1026 22:14:30.544075  7097 net.cpp:129] Top shape: 1 48 64 64 (196608)
I1026 22:14:30.544076  7097 net.cpp:137] Memory required for data: 27853440
I1026 22:14:30.544082  7097 layer_factory.hpp:77] Creating layer scale4a_branch1
I1026 22:14:30.544087  7097 net.cpp:84] Creating Layer scale4a_branch1
I1026 22:14:30.544090  7097 net.cpp:406] scale4a_branch1 <- res4a_branch1
I1026 22:14:30.544095  7097 net.cpp:367] scale4a_branch1 -> res4a_branch1 (in-place)
I1026 22:14:30.544134  7097 layer_factory.hpp:77] Creating layer scale4a_branch1
I1026 22:14:30.544248  7097 net.cpp:122] Setting up scale4a_branch1
I1026 22:14:30.544255  7097 net.cpp:129] Top shape: 1 48 64 64 (196608)
I1026 22:14:30.544258  7097 net.cpp:137] Memory required for data: 28639872
I1026 22:14:30.544266  7097 layer_factory.hpp:77] Creating layer res4a_branch2a
I1026 22:14:30.544276  7097 net.cpp:84] Creating Layer res4a_branch2a
I1026 22:14:30.544281  7097 net.cpp:406] res4a_branch2a <- res3a_res3a_relu_0_split_1
I1026 22:14:30.544286  7097 net.cpp:380] res4a_branch2a -> res4a_branch2a
I1026 22:14:30.545338  7097 net.cpp:122] Setting up res4a_branch2a
I1026 22:14:30.545348  7097 net.cpp:129] Top shape: 1 48 64 64 (196608)
I1026 22:14:30.545352  7097 net.cpp:137] Memory required for data: 29426304
I1026 22:14:30.545363  7097 layer_factory.hpp:77] Creating layer bn4a_branch2a
I1026 22:14:30.545372  7097 net.cpp:84] Creating Layer bn4a_branch2a
I1026 22:14:30.545375  7097 net.cpp:406] bn4a_branch2a <- res4a_branch2a
I1026 22:14:30.545382  7097 net.cpp:367] bn4a_branch2a -> res4a_branch2a (in-place)
I1026 22:14:30.545565  7097 net.cpp:122] Setting up bn4a_branch2a
I1026 22:14:30.545572  7097 net.cpp:129] Top shape: 1 48 64 64 (196608)
I1026 22:14:30.545574  7097 net.cpp:137] Memory required for data: 30212736
I1026 22:14:30.545581  7097 layer_factory.hpp:77] Creating layer scale4a_branch2a
I1026 22:14:30.545588  7097 net.cpp:84] Creating Layer scale4a_branch2a
I1026 22:14:30.545593  7097 net.cpp:406] scale4a_branch2a <- res4a_branch2a
I1026 22:14:30.545598  7097 net.cpp:367] scale4a_branch2a -> res4a_branch2a (in-place)
I1026 22:14:30.545634  7097 layer_factory.hpp:77] Creating layer scale4a_branch2a
I1026 22:14:30.545742  7097 net.cpp:122] Setting up scale4a_branch2a
I1026 22:14:30.545747  7097 net.cpp:129] Top shape: 1 48 64 64 (196608)
I1026 22:14:30.545752  7097 net.cpp:137] Memory required for data: 30999168
I1026 22:14:30.545758  7097 layer_factory.hpp:77] Creating layer res4a_branch2a_relu
I1026 22:14:30.545763  7097 net.cpp:84] Creating Layer res4a_branch2a_relu
I1026 22:14:30.545768  7097 net.cpp:406] res4a_branch2a_relu <- res4a_branch2a
I1026 22:14:30.545773  7097 net.cpp:367] res4a_branch2a_relu -> res4a_branch2a (in-place)
I1026 22:14:30.546186  7097 net.cpp:122] Setting up res4a_branch2a_relu
I1026 22:14:30.546195  7097 net.cpp:129] Top shape: 1 48 64 64 (196608)
I1026 22:14:30.546200  7097 net.cpp:137] Memory required for data: 31785600
I1026 22:14:30.546205  7097 layer_factory.hpp:77] Creating layer res4a_branch2b
I1026 22:14:30.546216  7097 net.cpp:84] Creating Layer res4a_branch2b
I1026 22:14:30.546218  7097 net.cpp:406] res4a_branch2b <- res4a_branch2a
I1026 22:14:30.546226  7097 net.cpp:380] res4a_branch2b -> res4a_branch2b
I1026 22:14:30.548409  7097 net.cpp:122] Setting up res4a_branch2b
I1026 22:14:30.548434  7097 net.cpp:129] Top shape: 1 48 64 64 (196608)
I1026 22:14:30.548437  7097 net.cpp:137] Memory required for data: 32572032
I1026 22:14:30.548444  7097 layer_factory.hpp:77] Creating layer bn4a_branch2b
I1026 22:14:30.548454  7097 net.cpp:84] Creating Layer bn4a_branch2b
I1026 22:14:30.548458  7097 net.cpp:406] bn4a_branch2b <- res4a_branch2b
I1026 22:14:30.548465  7097 net.cpp:367] bn4a_branch2b -> res4a_branch2b (in-place)
I1026 22:14:30.548663  7097 net.cpp:122] Setting up bn4a_branch2b
I1026 22:14:30.548669  7097 net.cpp:129] Top shape: 1 48 64 64 (196608)
I1026 22:14:30.548672  7097 net.cpp:137] Memory required for data: 33358464
I1026 22:14:30.548681  7097 layer_factory.hpp:77] Creating layer scale4a_branch2b
I1026 22:14:30.548687  7097 net.cpp:84] Creating Layer scale4a_branch2b
I1026 22:14:30.548691  7097 net.cpp:406] scale4a_branch2b <- res4a_branch2b
I1026 22:14:30.548698  7097 net.cpp:367] scale4a_branch2b -> res4a_branch2b (in-place)
I1026 22:14:30.548740  7097 layer_factory.hpp:77] Creating layer scale4a_branch2b
I1026 22:14:30.548878  7097 net.cpp:122] Setting up scale4a_branch2b
I1026 22:14:30.548884  7097 net.cpp:129] Top shape: 1 48 64 64 (196608)
I1026 22:14:30.548887  7097 net.cpp:137] Memory required for data: 34144896
I1026 22:14:30.548907  7097 layer_factory.hpp:77] Creating layer res4a_branch2b_relu
I1026 22:14:30.548915  7097 net.cpp:84] Creating Layer res4a_branch2b_relu
I1026 22:14:30.548919  7097 net.cpp:406] res4a_branch2b_relu <- res4a_branch2b
I1026 22:14:30.548938  7097 net.cpp:367] res4a_branch2b_relu -> res4a_branch2b (in-place)
I1026 22:14:30.549360  7097 net.cpp:122] Setting up res4a_branch2b_relu
I1026 22:14:30.549369  7097 net.cpp:129] Top shape: 1 48 64 64 (196608)
I1026 22:14:30.549374  7097 net.cpp:137] Memory required for data: 34931328
I1026 22:14:30.549378  7097 layer_factory.hpp:77] Creating layer res4a_branch2c
I1026 22:14:30.549389  7097 net.cpp:84] Creating Layer res4a_branch2c
I1026 22:14:30.549394  7097 net.cpp:406] res4a_branch2c <- res4a_branch2b
I1026 22:14:30.549401  7097 net.cpp:380] res4a_branch2c -> res4a_branch2c
I1026 22:14:30.550595  7097 net.cpp:122] Setting up res4a_branch2c
I1026 22:14:30.550606  7097 net.cpp:129] Top shape: 1 48 64 64 (196608)
I1026 22:14:30.550609  7097 net.cpp:137] Memory required for data: 35717760
I1026 22:14:30.550627  7097 layer_factory.hpp:77] Creating layer bn4a_branch2c
I1026 22:14:30.550637  7097 net.cpp:84] Creating Layer bn4a_branch2c
I1026 22:14:30.550642  7097 net.cpp:406] bn4a_branch2c <- res4a_branch2c
I1026 22:14:30.550648  7097 net.cpp:367] bn4a_branch2c -> res4a_branch2c (in-place)
I1026 22:14:30.550921  7097 net.cpp:122] Setting up bn4a_branch2c
I1026 22:14:30.550927  7097 net.cpp:129] Top shape: 1 48 64 64 (196608)
I1026 22:14:30.550930  7097 net.cpp:137] Memory required for data: 36504192
I1026 22:14:30.550936  7097 layer_factory.hpp:77] Creating layer scale4a_branch2c
I1026 22:14:30.550941  7097 net.cpp:84] Creating Layer scale4a_branch2c
I1026 22:14:30.550945  7097 net.cpp:406] scale4a_branch2c <- res4a_branch2c
I1026 22:14:30.550949  7097 net.cpp:367] scale4a_branch2c -> res4a_branch2c (in-place)
I1026 22:14:30.551007  7097 layer_factory.hpp:77] Creating layer scale4a_branch2c
I1026 22:14:30.551162  7097 net.cpp:122] Setting up scale4a_branch2c
I1026 22:14:30.551167  7097 net.cpp:129] Top shape: 1 48 64 64 (196608)
I1026 22:14:30.551169  7097 net.cpp:137] Memory required for data: 37290624
I1026 22:14:30.551173  7097 layer_factory.hpp:77] Creating layer res4a
I1026 22:14:30.551178  7097 net.cpp:84] Creating Layer res4a
I1026 22:14:30.551182  7097 net.cpp:406] res4a <- res4a_branch1
I1026 22:14:30.551184  7097 net.cpp:406] res4a <- res4a_branch2c
I1026 22:14:30.551189  7097 net.cpp:380] res4a -> res4a
I1026 22:14:30.551229  7097 net.cpp:122] Setting up res4a
I1026 22:14:30.551234  7097 net.cpp:129] Top shape: 1 48 64 64 (196608)
I1026 22:14:30.551250  7097 net.cpp:137] Memory required for data: 38077056
I1026 22:14:30.551252  7097 layer_factory.hpp:77] Creating layer res4a_relu
I1026 22:14:30.551256  7097 net.cpp:84] Creating Layer res4a_relu
I1026 22:14:30.551275  7097 net.cpp:406] res4a_relu <- res4a
I1026 22:14:30.551280  7097 net.cpp:367] res4a_relu -> res4a (in-place)
I1026 22:14:30.551589  7097 net.cpp:122] Setting up res4a_relu
I1026 22:14:30.551596  7097 net.cpp:129] Top shape: 1 48 64 64 (196608)
I1026 22:14:30.551599  7097 net.cpp:137] Memory required for data: 38863488
I1026 22:14:30.551600  7097 layer_factory.hpp:77] Creating layer res4a_res4a_relu_0_split
I1026 22:14:30.551606  7097 net.cpp:84] Creating Layer res4a_res4a_relu_0_split
I1026 22:14:30.551609  7097 net.cpp:406] res4a_res4a_relu_0_split <- res4a
I1026 22:14:30.551614  7097 net.cpp:380] res4a_res4a_relu_0_split -> res4a_res4a_relu_0_split_0
I1026 22:14:30.551620  7097 net.cpp:380] res4a_res4a_relu_0_split -> res4a_res4a_relu_0_split_1
I1026 22:14:30.551692  7097 net.cpp:122] Setting up res4a_res4a_relu_0_split
I1026 22:14:30.551697  7097 net.cpp:129] Top shape: 1 48 64 64 (196608)
I1026 22:14:30.551714  7097 net.cpp:129] Top shape: 1 48 64 64 (196608)
I1026 22:14:30.551717  7097 net.cpp:137] Memory required for data: 40436352
I1026 22:14:30.551719  7097 layer_factory.hpp:77] Creating layer res4a_branch1_t
I1026 22:14:30.551731  7097 net.cpp:84] Creating Layer res4a_branch1_t
I1026 22:14:30.551748  7097 net.cpp:406] res4a_branch1_t <- res4a_res4a_relu_0_split_0
I1026 22:14:30.551756  7097 net.cpp:380] res4a_branch1_t -> res4a_branch1_t
I1026 22:14:30.554164  7097 net.cpp:122] Setting up res4a_branch1_t
I1026 22:14:30.554183  7097 net.cpp:129] Top shape: 1 64 64 64 (262144)
I1026 22:14:30.554186  7097 net.cpp:137] Memory required for data: 41484928
I1026 22:14:30.554194  7097 layer_factory.hpp:77] Creating layer bn4a_branch1_t
I1026 22:14:30.554203  7097 net.cpp:84] Creating Layer bn4a_branch1_t
I1026 22:14:30.554208  7097 net.cpp:406] bn4a_branch1_t <- res4a_branch1_t
I1026 22:14:30.554215  7097 net.cpp:367] bn4a_branch1_t -> res4a_branch1_t (in-place)
I1026 22:14:30.554538  7097 net.cpp:122] Setting up bn4a_branch1_t
I1026 22:14:30.554571  7097 net.cpp:129] Top shape: 1 64 64 64 (262144)
I1026 22:14:30.554584  7097 net.cpp:137] Memory required for data: 42533504
I1026 22:14:30.554602  7097 layer_factory.hpp:77] Creating layer scale4a_branch1_t
I1026 22:14:30.554622  7097 net.cpp:84] Creating Layer scale4a_branch1_t
I1026 22:14:30.554636  7097 net.cpp:406] scale4a_branch1_t <- res4a_branch1_t
I1026 22:14:30.554651  7097 net.cpp:367] scale4a_branch1_t -> res4a_branch1_t (in-place)
I1026 22:14:30.554733  7097 layer_factory.hpp:77] Creating layer scale4a_branch1_t
I1026 22:14:30.554849  7097 net.cpp:122] Setting up scale4a_branch1_t
I1026 22:14:30.554855  7097 net.cpp:129] Top shape: 1 64 64 64 (262144)
I1026 22:14:30.554859  7097 net.cpp:137] Memory required for data: 43582080
I1026 22:14:30.554865  7097 layer_factory.hpp:77] Creating layer res4a_branch2a_t
I1026 22:14:30.554875  7097 net.cpp:84] Creating Layer res4a_branch2a_t
I1026 22:14:30.554879  7097 net.cpp:406] res4a_branch2a_t <- res4a_res4a_relu_0_split_1
I1026 22:14:30.554886  7097 net.cpp:380] res4a_branch2a_t -> res4a_branch2a_t
I1026 22:14:30.556098  7097 net.cpp:122] Setting up res4a_branch2a_t
I1026 22:14:30.556108  7097 net.cpp:129] Top shape: 1 64 64 64 (262144)
I1026 22:14:30.556111  7097 net.cpp:137] Memory required for data: 44630656
I1026 22:14:30.556128  7097 layer_factory.hpp:77] Creating layer bn4a_branch2a_t
I1026 22:14:30.556136  7097 net.cpp:84] Creating Layer bn4a_branch2a_t
I1026 22:14:30.556157  7097 net.cpp:406] bn4a_branch2a_t <- res4a_branch2a_t
I1026 22:14:30.556165  7097 net.cpp:367] bn4a_branch2a_t -> res4a_branch2a_t (in-place)
I1026 22:14:30.556367  7097 net.cpp:122] Setting up bn4a_branch2a_t
I1026 22:14:30.556373  7097 net.cpp:129] Top shape: 1 64 64 64 (262144)
I1026 22:14:30.556377  7097 net.cpp:137] Memory required for data: 45679232
I1026 22:14:30.556386  7097 layer_factory.hpp:77] Creating layer scale4a_branch2a_t
I1026 22:14:30.556393  7097 net.cpp:84] Creating Layer scale4a_branch2a_t
I1026 22:14:30.556398  7097 net.cpp:406] scale4a_branch2a_t <- res4a_branch2a_t
I1026 22:14:30.556404  7097 net.cpp:367] scale4a_branch2a_t -> res4a_branch2a_t (in-place)
I1026 22:14:30.556460  7097 layer_factory.hpp:77] Creating layer scale4a_branch2a_t
I1026 22:14:30.556609  7097 net.cpp:122] Setting up scale4a_branch2a_t
I1026 22:14:30.556615  7097 net.cpp:129] Top shape: 1 64 64 64 (262144)
I1026 22:14:30.556618  7097 net.cpp:137] Memory required for data: 46727808
I1026 22:14:30.556638  7097 layer_factory.hpp:77] Creating layer res4a_branch2a_relu_t
I1026 22:14:30.556644  7097 net.cpp:84] Creating Layer res4a_branch2a_relu_t
I1026 22:14:30.556648  7097 net.cpp:406] res4a_branch2a_relu_t <- res4a_branch2a_t
I1026 22:14:30.556653  7097 net.cpp:367] res4a_branch2a_relu_t -> res4a_branch2a_t (in-place)
I1026 22:14:30.556918  7097 net.cpp:122] Setting up res4a_branch2a_relu_t
I1026 22:14:30.556926  7097 net.cpp:129] Top shape: 1 64 64 64 (262144)
I1026 22:14:30.556929  7097 net.cpp:137] Memory required for data: 47776384
I1026 22:14:30.556947  7097 layer_factory.hpp:77] Creating layer res4a_branch2b_t
I1026 22:14:30.556957  7097 net.cpp:84] Creating Layer res4a_branch2b_t
I1026 22:14:30.556960  7097 net.cpp:406] res4a_branch2b_t <- res4a_branch2a_t
I1026 22:14:30.556968  7097 net.cpp:380] res4a_branch2b_t -> res4a_branch2b_t
I1026 22:14:30.559247  7097 net.cpp:122] Setting up res4a_branch2b_t
I1026 22:14:30.559257  7097 net.cpp:129] Top shape: 1 64 64 64 (262144)
I1026 22:14:30.559263  7097 net.cpp:137] Memory required for data: 48824960
I1026 22:14:30.559285  7097 layer_factory.hpp:77] Creating layer bn4a_branch2b_t
I1026 22:14:30.559294  7097 net.cpp:84] Creating Layer bn4a_branch2b_t
I1026 22:14:30.559299  7097 net.cpp:406] bn4a_branch2b_t <- res4a_branch2b_t
I1026 22:14:30.559309  7097 net.cpp:367] bn4a_branch2b_t -> res4a_branch2b_t (in-place)
I1026 22:14:30.559511  7097 net.cpp:122] Setting up bn4a_branch2b_t
I1026 22:14:30.559517  7097 net.cpp:129] Top shape: 1 64 64 64 (262144)
I1026 22:14:30.559520  7097 net.cpp:137] Memory required for data: 49873536
I1026 22:14:30.559541  7097 layer_factory.hpp:77] Creating layer scale4a_branch2b_t
I1026 22:14:30.559547  7097 net.cpp:84] Creating Layer scale4a_branch2b_t
I1026 22:14:30.559551  7097 net.cpp:406] scale4a_branch2b_t <- res4a_branch2b_t
I1026 22:14:30.559556  7097 net.cpp:367] scale4a_branch2b_t -> res4a_branch2b_t (in-place)
I1026 22:14:30.559592  7097 layer_factory.hpp:77] Creating layer scale4a_branch2b_t
I1026 22:14:30.559700  7097 net.cpp:122] Setting up scale4a_branch2b_t
I1026 22:14:30.559706  7097 net.cpp:129] Top shape: 1 64 64 64 (262144)
I1026 22:14:30.559708  7097 net.cpp:137] Memory required for data: 50922112
I1026 22:14:30.559715  7097 layer_factory.hpp:77] Creating layer res4a_branch2b_relu_t
I1026 22:14:30.559720  7097 net.cpp:84] Creating Layer res4a_branch2b_relu_t
I1026 22:14:30.559722  7097 net.cpp:406] res4a_branch2b_relu_t <- res4a_branch2b_t
I1026 22:14:30.559726  7097 net.cpp:367] res4a_branch2b_relu_t -> res4a_branch2b_t (in-place)
I1026 22:14:30.559993  7097 net.cpp:122] Setting up res4a_branch2b_relu_t
I1026 22:14:30.560001  7097 net.cpp:129] Top shape: 1 64 64 64 (262144)
I1026 22:14:30.560004  7097 net.cpp:137] Memory required for data: 51970688
I1026 22:14:30.560022  7097 layer_factory.hpp:77] Creating layer res4a_branch2c_t
I1026 22:14:30.560034  7097 net.cpp:84] Creating Layer res4a_branch2c_t
I1026 22:14:30.560037  7097 net.cpp:406] res4a_branch2c_t <- res4a_branch2b_t
I1026 22:14:30.560045  7097 net.cpp:380] res4a_branch2c_t -> res4a_branch2c_t
I1026 22:14:30.561466  7097 net.cpp:122] Setting up res4a_branch2c_t
I1026 22:14:30.561476  7097 net.cpp:129] Top shape: 1 64 64 64 (262144)
I1026 22:14:30.561480  7097 net.cpp:137] Memory required for data: 53019264
I1026 22:14:30.561502  7097 layer_factory.hpp:77] Creating layer bn4a_branch2c_t
I1026 22:14:30.561511  7097 net.cpp:84] Creating Layer bn4a_branch2c_t
I1026 22:14:30.561513  7097 net.cpp:406] bn4a_branch2c_t <- res4a_branch2c_t
I1026 22:14:30.561520  7097 net.cpp:367] bn4a_branch2c_t -> res4a_branch2c_t (in-place)
I1026 22:14:30.561722  7097 net.cpp:122] Setting up bn4a_branch2c_t
I1026 22:14:30.561728  7097 net.cpp:129] Top shape: 1 64 64 64 (262144)
I1026 22:14:30.561730  7097 net.cpp:137] Memory required for data: 54067840
I1026 22:14:30.561753  7097 layer_factory.hpp:77] Creating layer scale4a_branch2c_t
I1026 22:14:30.561758  7097 net.cpp:84] Creating Layer scale4a_branch2c_t
I1026 22:14:30.561760  7097 net.cpp:406] scale4a_branch2c_t <- res4a_branch2c_t
I1026 22:14:30.561765  7097 net.cpp:367] scale4a_branch2c_t -> res4a_branch2c_t (in-place)
I1026 22:14:30.561805  7097 layer_factory.hpp:77] Creating layer scale4a_branch2c_t
I1026 22:14:30.562571  7097 net.cpp:122] Setting up scale4a_branch2c_t
I1026 22:14:30.562580  7097 net.cpp:129] Top shape: 1 64 64 64 (262144)
I1026 22:14:30.562584  7097 net.cpp:137] Memory required for data: 55116416
I1026 22:14:30.562606  7097 layer_factory.hpp:77] Creating layer res4a_t
I1026 22:14:30.562613  7097 net.cpp:84] Creating Layer res4a_t
I1026 22:14:30.562618  7097 net.cpp:406] res4a_t <- res4a_branch1_t
I1026 22:14:30.562623  7097 net.cpp:406] res4a_t <- res4a_branch2c_t
I1026 22:14:30.562630  7097 net.cpp:380] res4a_t -> res4a_t
I1026 22:14:30.562664  7097 net.cpp:122] Setting up res4a_t
I1026 22:14:30.562669  7097 net.cpp:129] Top shape: 1 64 64 64 (262144)
I1026 22:14:30.562682  7097 net.cpp:137] Memory required for data: 56164992
I1026 22:14:30.562685  7097 layer_factory.hpp:77] Creating layer res4a_relu_t
I1026 22:14:30.562690  7097 net.cpp:84] Creating Layer res4a_relu_t
I1026 22:14:30.562693  7097 net.cpp:406] res4a_relu_t <- res4a_t
I1026 22:14:30.562697  7097 net.cpp:367] res4a_relu_t -> res4a_t (in-place)
I1026 22:14:30.562948  7097 net.cpp:122] Setting up res4a_relu_t
I1026 22:14:30.562957  7097 net.cpp:129] Top shape: 1 64 64 64 (262144)
I1026 22:14:30.562960  7097 net.cpp:137] Memory required for data: 57213568
I1026 22:14:30.562964  7097 layer_factory.hpp:77] Creating layer res4a_t_res4a_relu_t_0_split
I1026 22:14:30.562973  7097 net.cpp:84] Creating Layer res4a_t_res4a_relu_t_0_split
I1026 22:14:30.562976  7097 net.cpp:406] res4a_t_res4a_relu_t_0_split <- res4a_t
I1026 22:14:30.562983  7097 net.cpp:380] res4a_t_res4a_relu_t_0_split -> res4a_t_res4a_relu_t_0_split_0
I1026 22:14:30.562990  7097 net.cpp:380] res4a_t_res4a_relu_t_0_split -> res4a_t_res4a_relu_t_0_split_1
I1026 22:14:30.563045  7097 net.cpp:122] Setting up res4a_t_res4a_relu_t_0_split
I1026 22:14:30.563051  7097 net.cpp:129] Top shape: 1 64 64 64 (262144)
I1026 22:14:30.563055  7097 net.cpp:129] Top shape: 1 64 64 64 (262144)
I1026 22:14:30.563078  7097 net.cpp:137] Memory required for data: 59310720
I1026 22:14:30.563081  7097 layer_factory.hpp:77] Creating layer conv3_1_1x1_reduce
I1026 22:14:30.563089  7097 net.cpp:84] Creating Layer conv3_1_1x1_reduce
I1026 22:14:30.563092  7097 net.cpp:406] conv3_1_1x1_reduce <- res4a_t_res4a_relu_t_0_split_0
I1026 22:14:30.563098  7097 net.cpp:380] conv3_1_1x1_reduce -> conv3_1_1x1_reduce
I1026 22:14:30.564558  7097 net.cpp:122] Setting up conv3_1_1x1_reduce
I1026 22:14:30.564568  7097 net.cpp:129] Top shape: 1 64 64 64 (262144)
I1026 22:14:30.564571  7097 net.cpp:137] Memory required for data: 60359296
I1026 22:14:30.564591  7097 layer_factory.hpp:77] Creating layer conv3_1_1x1_reduce/bn
I1026 22:14:30.564600  7097 net.cpp:84] Creating Layer conv3_1_1x1_reduce/bn
I1026 22:14:30.564604  7097 net.cpp:406] conv3_1_1x1_reduce/bn <- conv3_1_1x1_reduce
I1026 22:14:30.564612  7097 net.cpp:367] conv3_1_1x1_reduce/bn -> conv3_1_1x1_reduce (in-place)
I1026 22:14:30.564821  7097 net.cpp:122] Setting up conv3_1_1x1_reduce/bn
I1026 22:14:30.564827  7097 net.cpp:129] Top shape: 1 64 64 64 (262144)
I1026 22:14:30.564831  7097 net.cpp:137] Memory required for data: 61407872
I1026 22:14:30.564841  7097 layer_factory.hpp:77] Creating layer conv3_1_1x1_reduce/bn/scale
I1026 22:14:30.564847  7097 net.cpp:84] Creating Layer conv3_1_1x1_reduce/bn/scale
I1026 22:14:30.564851  7097 net.cpp:406] conv3_1_1x1_reduce/bn/scale <- conv3_1_1x1_reduce
I1026 22:14:30.564857  7097 net.cpp:367] conv3_1_1x1_reduce/bn/scale -> conv3_1_1x1_reduce (in-place)
I1026 22:14:30.564898  7097 layer_factory.hpp:77] Creating layer conv3_1_1x1_reduce/bn/scale
I1026 22:14:30.565001  7097 net.cpp:122] Setting up conv3_1_1x1_reduce/bn/scale
I1026 22:14:30.565006  7097 net.cpp:129] Top shape: 1 64 64 64 (262144)
I1026 22:14:30.565011  7097 net.cpp:137] Memory required for data: 62456448
I1026 22:14:30.565018  7097 layer_factory.hpp:77] Creating layer conv3_1_1x1_reduce/relu
I1026 22:14:30.565023  7097 net.cpp:84] Creating Layer conv3_1_1x1_reduce/relu
I1026 22:14:30.565027  7097 net.cpp:406] conv3_1_1x1_reduce/relu <- conv3_1_1x1_reduce
I1026 22:14:30.565033  7097 net.cpp:367] conv3_1_1x1_reduce/relu -> conv3_1_1x1_reduce (in-place)
I1026 22:14:30.565583  7097 net.cpp:122] Setting up conv3_1_1x1_reduce/relu
I1026 22:14:30.565593  7097 net.cpp:129] Top shape: 1 64 64 64 (262144)
I1026 22:14:30.565596  7097 net.cpp:137] Memory required for data: 63505024
I1026 22:14:30.565614  7097 layer_factory.hpp:77] Creating layer conv3_1_3x3
I1026 22:14:30.565623  7097 net.cpp:84] Creating Layer conv3_1_3x3
I1026 22:14:30.565626  7097 net.cpp:406] conv3_1_3x3 <- conv3_1_1x1_reduce
I1026 22:14:30.565631  7097 net.cpp:380] conv3_1_3x3 -> conv3_1_3x3
I1026 22:14:30.567080  7097 net.cpp:122] Setting up conv3_1_3x3
I1026 22:14:30.567106  7097 net.cpp:129] Top shape: 1 64 64 64 (262144)
I1026 22:14:30.567108  7097 net.cpp:137] Memory required for data: 64553600
I1026 22:14:30.567129  7097 layer_factory.hpp:77] Creating layer conv3_1_3x3/bn
I1026 22:14:30.567138  7097 net.cpp:84] Creating Layer conv3_1_3x3/bn
I1026 22:14:30.567142  7097 net.cpp:406] conv3_1_3x3/bn <- conv3_1_3x3
I1026 22:14:30.567149  7097 net.cpp:367] conv3_1_3x3/bn -> conv3_1_3x3 (in-place)
I1026 22:14:30.567415  7097 net.cpp:122] Setting up conv3_1_3x3/bn
I1026 22:14:30.567425  7097 net.cpp:129] Top shape: 1 64 64 64 (262144)
I1026 22:14:30.567430  7097 net.cpp:137] Memory required for data: 65602176
I1026 22:14:30.567442  7097 layer_factory.hpp:77] Creating layer conv3_1_3x3/bn/scale
I1026 22:14:30.567453  7097 net.cpp:84] Creating Layer conv3_1_3x3/bn/scale
I1026 22:14:30.567461  7097 net.cpp:406] conv3_1_3x3/bn/scale <- conv3_1_3x3
I1026 22:14:30.567472  7097 net.cpp:367] conv3_1_3x3/bn/scale -> conv3_1_3x3 (in-place)
I1026 22:14:30.567553  7097 layer_factory.hpp:77] Creating layer conv3_1_3x3/bn/scale
I1026 22:14:30.567778  7097 net.cpp:122] Setting up conv3_1_3x3/bn/scale
I1026 22:14:30.567790  7097 net.cpp:129] Top shape: 1 64 64 64 (262144)
I1026 22:14:30.567795  7097 net.cpp:137] Memory required for data: 66650752
I1026 22:14:30.567806  7097 layer_factory.hpp:77] Creating layer conv3_1_3x3/relu
I1026 22:14:30.567817  7097 net.cpp:84] Creating Layer conv3_1_3x3/relu
I1026 22:14:30.567823  7097 net.cpp:406] conv3_1_3x3/relu <- conv3_1_3x3
I1026 22:14:30.567832  7097 net.cpp:367] conv3_1_3x3/relu -> conv3_1_3x3 (in-place)
I1026 22:14:30.568306  7097 net.cpp:122] Setting up conv3_1_3x3/relu
I1026 22:14:30.568316  7097 net.cpp:129] Top shape: 1 64 64 64 (262144)
I1026 22:14:30.568320  7097 net.cpp:137] Memory required for data: 67699328
I1026 22:14:30.568341  7097 layer_factory.hpp:77] Creating layer conv3_1_1x1_increase
I1026 22:14:30.568356  7097 net.cpp:84] Creating Layer conv3_1_1x1_increase
I1026 22:14:30.568363  7097 net.cpp:406] conv3_1_1x1_increase <- conv3_1_3x3
I1026 22:14:30.568390  7097 net.cpp:380] conv3_1_1x1_increase -> conv3_1_1x1_increase
I1026 22:14:30.570835  7097 net.cpp:122] Setting up conv3_1_1x1_increase
I1026 22:14:30.570852  7097 net.cpp:129] Top shape: 1 64 64 64 (262144)
I1026 22:14:30.570857  7097 net.cpp:137] Memory required for data: 68747904
I1026 22:14:30.570863  7097 layer_factory.hpp:77] Creating layer conv3_1_1x1_increase/bn
I1026 22:14:30.570873  7097 net.cpp:84] Creating Layer conv3_1_1x1_increase/bn
I1026 22:14:30.570876  7097 net.cpp:406] conv3_1_1x1_increase/bn <- conv3_1_1x1_increase
I1026 22:14:30.570884  7097 net.cpp:367] conv3_1_1x1_increase/bn -> conv3_1_1x1_increase (in-place)
I1026 22:14:30.571154  7097 net.cpp:122] Setting up conv3_1_1x1_increase/bn
I1026 22:14:30.571161  7097 net.cpp:129] Top shape: 1 64 64 64 (262144)
I1026 22:14:30.571163  7097 net.cpp:137] Memory required for data: 69796480
I1026 22:14:30.571171  7097 layer_factory.hpp:77] Creating layer conv3_1_1x1_increase/bn/scale
I1026 22:14:30.571177  7097 net.cpp:84] Creating Layer conv3_1_1x1_increase/bn/scale
I1026 22:14:30.571182  7097 net.cpp:406] conv3_1_1x1_increase/bn/scale <- conv3_1_1x1_increase
I1026 22:14:30.571187  7097 net.cpp:367] conv3_1_1x1_increase/bn/scale -> conv3_1_1x1_increase (in-place)
I1026 22:14:30.571231  7097 layer_factory.hpp:77] Creating layer conv3_1_1x1_increase/bn/scale
I1026 22:14:30.571342  7097 net.cpp:122] Setting up conv3_1_1x1_increase/bn/scale
I1026 22:14:30.571348  7097 net.cpp:129] Top shape: 1 64 64 64 (262144)
I1026 22:14:30.571350  7097 net.cpp:137] Memory required for data: 70845056
I1026 22:14:30.571355  7097 layer_factory.hpp:77] Creating layer conv3_1_1x1_increase_conv3_1_1x1_increase/bn/scale_0_split
I1026 22:14:30.571362  7097 net.cpp:84] Creating Layer conv3_1_1x1_increase_conv3_1_1x1_increase/bn/scale_0_split
I1026 22:14:30.571364  7097 net.cpp:406] conv3_1_1x1_increase_conv3_1_1x1_increase/bn/scale_0_split <- conv3_1_1x1_increase
I1026 22:14:30.571369  7097 net.cpp:380] conv3_1_1x1_increase_conv3_1_1x1_increase/bn/scale_0_split -> conv3_1_1x1_increase_conv3_1_1x1_increase/bn/scale_0_split_0
I1026 22:14:30.571393  7097 net.cpp:380] conv3_1_1x1_increase_conv3_1_1x1_increase/bn/scale_0_split -> conv3_1_1x1_increase_conv3_1_1x1_increase/bn/scale_0_split_1
I1026 22:14:30.571445  7097 net.cpp:122] Setting up conv3_1_1x1_increase_conv3_1_1x1_increase/bn/scale_0_split
I1026 22:14:30.571450  7097 net.cpp:129] Top shape: 1 64 64 64 (262144)
I1026 22:14:30.571454  7097 net.cpp:129] Top shape: 1 64 64 64 (262144)
I1026 22:14:30.571456  7097 net.cpp:137] Memory required for data: 72942208
I1026 22:14:30.571458  7097 layer_factory.hpp:77] Creating layer conv3_1_global_pool
I1026 22:14:30.571465  7097 net.cpp:84] Creating Layer conv3_1_global_pool
I1026 22:14:30.571467  7097 net.cpp:406] conv3_1_global_pool <- conv3_1_1x1_increase_conv3_1_1x1_increase/bn/scale_0_split_0
I1026 22:14:30.571473  7097 net.cpp:380] conv3_1_global_pool -> conv3_1_global_pool
I1026 22:14:30.571496  7097 net.cpp:122] Setting up conv3_1_global_pool
I1026 22:14:30.571501  7097 net.cpp:129] Top shape: 1 64 1 1 (64)
I1026 22:14:30.571503  7097 net.cpp:137] Memory required for data: 72942464
I1026 22:14:30.571506  7097 layer_factory.hpp:77] Creating layer conv3_1_1x1_down
I1026 22:14:30.571512  7097 net.cpp:84] Creating Layer conv3_1_1x1_down
I1026 22:14:30.571516  7097 net.cpp:406] conv3_1_1x1_down <- conv3_1_global_pool
I1026 22:14:30.571521  7097 net.cpp:380] conv3_1_1x1_down -> conv3_1_1x1_down
I1026 22:14:30.572896  7097 net.cpp:122] Setting up conv3_1_1x1_down
I1026 22:14:30.572906  7097 net.cpp:129] Top shape: 1 64 1 1 (64)
I1026 22:14:30.572909  7097 net.cpp:137] Memory required for data: 72942720
I1026 22:14:30.572914  7097 layer_factory.hpp:77] Creating layer conv3_1_1x1_down/relu
I1026 22:14:30.572921  7097 net.cpp:84] Creating Layer conv3_1_1x1_down/relu
I1026 22:14:30.572926  7097 net.cpp:406] conv3_1_1x1_down/relu <- conv3_1_1x1_down
I1026 22:14:30.572930  7097 net.cpp:367] conv3_1_1x1_down/relu -> conv3_1_1x1_down (in-place)
I1026 22:14:30.573173  7097 net.cpp:122] Setting up conv3_1_1x1_down/relu
I1026 22:14:30.573179  7097 net.cpp:129] Top shape: 1 64 1 1 (64)
I1026 22:14:30.573182  7097 net.cpp:137] Memory required for data: 72942976
I1026 22:14:30.573184  7097 layer_factory.hpp:77] Creating layer conv3_1_1x1_up
I1026 22:14:30.573192  7097 net.cpp:84] Creating Layer conv3_1_1x1_up
I1026 22:14:30.573196  7097 net.cpp:406] conv3_1_1x1_up <- conv3_1_1x1_down
I1026 22:14:30.573202  7097 net.cpp:380] conv3_1_1x1_up -> conv3_1_1x1_up
I1026 22:14:30.574592  7097 net.cpp:122] Setting up conv3_1_1x1_up
I1026 22:14:30.574601  7097 net.cpp:129] Top shape: 1 64 1 1 (64)
I1026 22:14:30.574604  7097 net.cpp:137] Memory required for data: 72943232
I1026 22:14:30.574609  7097 layer_factory.hpp:77] Creating layer conv3_1_prob
I1026 22:14:30.574615  7097 net.cpp:84] Creating Layer conv3_1_prob
I1026 22:14:30.574617  7097 net.cpp:406] conv3_1_prob <- conv3_1_1x1_up
I1026 22:14:30.574621  7097 net.cpp:367] conv3_1_prob -> conv3_1_1x1_up (in-place)
I1026 22:14:30.574939  7097 net.cpp:122] Setting up conv3_1_prob
I1026 22:14:30.574945  7097 net.cpp:129] Top shape: 1 64 1 1 (64)
I1026 22:14:30.574947  7097 net.cpp:137] Memory required for data: 72943488
I1026 22:14:30.574950  7097 layer_factory.hpp:77] Creating layer conv3_1_1x1_proj
I1026 22:14:30.574957  7097 net.cpp:84] Creating Layer conv3_1_1x1_proj
I1026 22:14:30.574961  7097 net.cpp:406] conv3_1_1x1_proj <- res4a_t_res4a_relu_t_0_split_1
I1026 22:14:30.574966  7097 net.cpp:380] conv3_1_1x1_proj -> conv3_1_1x1_proj
I1026 22:14:30.576092  7097 net.cpp:122] Setting up conv3_1_1x1_proj
I1026 22:14:30.576117  7097 net.cpp:129] Top shape: 1 64 64 64 (262144)
I1026 22:14:30.576120  7097 net.cpp:137] Memory required for data: 73992064
I1026 22:14:30.576131  7097 layer_factory.hpp:77] Creating layer conv3_1_1x1_proj/bn
I1026 22:14:30.576139  7097 net.cpp:84] Creating Layer conv3_1_1x1_proj/bn
I1026 22:14:30.576143  7097 net.cpp:406] conv3_1_1x1_proj/bn <- conv3_1_1x1_proj
I1026 22:14:30.576148  7097 net.cpp:367] conv3_1_1x1_proj/bn -> conv3_1_1x1_proj (in-place)
I1026 22:14:30.576431  7097 net.cpp:122] Setting up conv3_1_1x1_proj/bn
I1026 22:14:30.576437  7097 net.cpp:129] Top shape: 1 64 64 64 (262144)
I1026 22:14:30.576440  7097 net.cpp:137] Memory required for data: 75040640
I1026 22:14:30.576447  7097 layer_factory.hpp:77] Creating layer conv3_1_1x1_proj/bn/scale
I1026 22:14:30.576452  7097 net.cpp:84] Creating Layer conv3_1_1x1_proj/bn/scale
I1026 22:14:30.576453  7097 net.cpp:406] conv3_1_1x1_proj/bn/scale <- conv3_1_1x1_proj
I1026 22:14:30.576458  7097 net.cpp:367] conv3_1_1x1_proj/bn/scale -> conv3_1_1x1_proj (in-place)
I1026 22:14:30.576514  7097 layer_factory.hpp:77] Creating layer conv3_1_1x1_proj/bn/scale
I1026 22:14:30.576670  7097 net.cpp:122] Setting up conv3_1_1x1_proj/bn/scale
I1026 22:14:30.576675  7097 net.cpp:129] Top shape: 1 64 64 64 (262144)
I1026 22:14:30.576678  7097 net.cpp:137] Memory required for data: 76089216
I1026 22:14:30.576683  7097 layer_factory.hpp:77] Creating layer conv4_4
I1026 22:14:30.576686  7097 net.cpp:84] Creating Layer conv4_4
I1026 22:14:30.576689  7097 net.cpp:406] conv4_4 <- conv3_1_1x1_up
I1026 22:14:30.576694  7097 net.cpp:406] conv4_4 <- conv3_1_1x1_increase_conv3_1_1x1_increase/bn/scale_0_split_1
I1026 22:14:30.576696  7097 net.cpp:406] conv4_4 <- conv3_1_1x1_proj
I1026 22:14:30.576700  7097 net.cpp:380] conv4_4 -> conv4_4
I1026 22:14:30.576774  7097 net.cpp:122] Setting up conv4_4
I1026 22:14:30.576779  7097 net.cpp:129] Top shape: 1 64 64 64 (262144)
I1026 22:14:30.576782  7097 net.cpp:137] Memory required for data: 77137792
I1026 22:14:30.576784  7097 layer_factory.hpp:77] Creating layer conv4_4/relu
I1026 22:14:30.576804  7097 net.cpp:84] Creating Layer conv4_4/relu
I1026 22:14:30.576807  7097 net.cpp:406] conv4_4/relu <- conv4_4
I1026 22:14:30.576812  7097 net.cpp:367] conv4_4/relu -> conv4_4 (in-place)
I1026 22:14:30.577242  7097 net.cpp:122] Setting up conv4_4/relu
I1026 22:14:30.577252  7097 net.cpp:129] Top shape: 1 64 64 64 (262144)
I1026 22:14:30.577255  7097 net.cpp:137] Memory required for data: 78186368
I1026 22:14:30.577258  7097 layer_factory.hpp:77] Creating layer conv4_4_end
I1026 22:14:30.577266  7097 net.cpp:84] Creating Layer conv4_4_end
I1026 22:14:30.577270  7097 net.cpp:406] conv4_4_end <- conv4_4
I1026 22:14:30.577275  7097 net.cpp:380] conv4_4_end -> conv4_4_end
I1026 22:14:30.578455  7097 net.cpp:122] Setting up conv4_4_end
I1026 22:14:30.578464  7097 net.cpp:129] Top shape: 1 1 64 64 (4096)
I1026 22:14:30.578469  7097 net.cpp:137] Memory required for data: 78202752
I1026 22:14:30.578472  7097 layer_factory.hpp:77] Creating layer HR_recovery
I1026 22:14:30.578852  7097 net.cpp:84] Creating Layer HR_recovery
I1026 22:14:30.578858  7097 net.cpp:406] HR_recovery <- data_data_0_split_1
I1026 22:14:30.578862  7097 net.cpp:406] HR_recovery <- conv4_4_end
I1026 22:14:30.578867  7097 net.cpp:380] HR_recovery -> HR_recovery
I1026 22:14:30.578907  7097 net.cpp:122] Setting up HR_recovery
I1026 22:14:30.578912  7097 net.cpp:129] Top shape: 1 1 64 64 (4096)
I1026 22:14:30.578914  7097 net.cpp:137] Memory required for data: 78219136
I1026 22:14:30.578917  7097 layer_factory.hpp:77] Creating layer loss
I1026 22:14:30.578922  7097 net.cpp:84] Creating Layer loss
I1026 22:14:30.578924  7097 net.cpp:406] loss <- HR_recovery
I1026 22:14:30.578927  7097 net.cpp:406] loss <- label
I1026 22:14:30.578932  7097 net.cpp:380] loss -> loss
I1026 22:14:30.578982  7097 net.cpp:122] Setting up loss
…
